2020/A3_solution/one_minute_deepconvnet.pth (torch, 103060 bytes, 8 tensors)

W0 f4 [32, 3, 3, 3]
000000 f0 9b 4b bc 8f 88 d7 bb 5c f2 1a bc 24 4c f2 b8
       -0.012427315 -0.0065775583 -0.009457197 -0.000115536415
000010 9e ef 9f 3a df 2e 36 bc f8 36 1e bc 45 8a 0e bb
       0.0012202149 -0.011119573 -0.00965666 -0.0021749896
000020 f9 4f 51 3c b3 13 e3 bc 4f 45 eb bc a4 f3 00 bd
       0.012775415 -0.027719354 -0.028719572 -0.031482354
000030 e3 62 3d bc 1c c8 52 bc a9 75 13 bc 39 3b 9d bc
       -0.011559221 -0.012865093 -0.00900022 -0.019193279
000040 08 71 97 bc 1a e2 93 bb 83 0d a5 bb f9 6b a1 bb
       -0.018486515 -0.0045130374 -0.005037011 -0.0049262014
000050 73 d6 14 3b ad 97 4c 3c 47 6a 5c 3c a3 7f 85 3c
       0.002271083 0.012487334 0.013453073 0.016296213
000060 a8 4e 48 3c f9 b9 77 3c 62 20 7f 3c 9c 1e 2f bd
       0.012225784 0.015120023 0.0155716855 -0.0427538
000070 29 15 15 bd 43 f9 3d bd 11 f6 ae bd 54 c9 a2 bd
       -0.036397133 -0.046380293 -0.08543027 -0.079485565
000080 c3 99 8a bd 27 44 96 bd d7 75 8e bd ee a3 94 bd
       -0.06767609 -0.07337218 -0.0695607 -0.072578296
000090 b4 a4 0e 3d 7f 61 4b 3c ce 5c a2 3c 41 39 13 3d
       0.034825042 0.012413382 0.019819643 0.035943273
0000a0 46 cb 85 3c fd 08 d1 3c 78 72 0b 3c 8a ef b1 3c
       0.01633228 0.025516981 0.008511178 0.021720666
0000b0 c2 1b e4 3c f0 12 8a 3d 7f 2c 83 3d 29 c6 46 3d
       0.027845267 0.06741893 0.06404971 0.048528824
0000c0 fa ff 68 3d ff 51 84 3d e0 e6 56 3d a5 5e 2a 3d
       0.056884743 0.06460952 0.052466273 0.041594166
0000d0 66 fa 12 3d 46 f3 cd 3c 79 bb a6 bb 2c 87 7d 3c
       0.03588333 0.025140416 -0.0050882665 0.015474122
0000e0 c0 3a a4 3b 15 ec 8c bd be 14 84 bd be ac 8e bd
       0.0050118864 -0.068809666 -0.06449269 -0.06966542
0000f0 9b f9 ad bd 68 47 89 bd c6 3d aa bd 94 56 50 bc
       -0.08494874 -0.06703073 -0.083125636 -0.012715954
000100 de f1 f0 bb fa 12 c7 3b a5 9f e4 bc 4f c2 4f bd
       -0.0073530516 0.00607526 -0.027908156 -0.050722416
000110 85 cb 3b bd 6e 56 40 bd ae 64 fb bc 56 ce 1a bd
       -0.04584839 -0.046957426 -0.030687656 -0.037794434
000120 63 a0 3e 3d ff 41 4d 3d db 78 77 3d a2 fc 3a 3d
       0.046539675 0.050111767 0.06041799 0.045651086
000130 16 e5 17 3d 1a a7 1a 3d f2 95 0b 3d f6 2d 7c 3d
       0.037083708 0.037757017 0.034078546 0.06156727
000140 0c 04 6a 3d 8a e2 28 bc ec 38 76 ba 22 75 5c 3c
       0.057132766 -0.010307917 -0.00093926373 0.013455661
000150 fd 2d 1c be ab 62 3c be b8 0a 18 be b0 4e d2 3b
       -0.15251918 -0.18397014 -0.14847839 0.0064180717
000160 c3 7f 7c 3d 95 2b 57 3d 2c a6 45 3c c3 1d de 3c
       0.06164528 0.052531797 0.012063544 0.0271138
000170 05 87 00 3d c9 9e c8 bd 1b d9 fd bd c7 28 e1 bd
       0.031378765 -0.09795911 -0.12394925 -0.10994106
000180 47 b5 56 3d a1 18 d7 3d 93 16 39 3d 0e b4 c5 3c
       0.052418973 0.105027445 0.045187544 0.024133708
000190 f9 f0 11 3d a0 0f 8d 3c a1 57 eb bc c8 ec 8d bd
       0.0356302 0.017219365 -0.028728308 -0.06929928
0001a0 7e bd 92 bd 97 13 15 3e df 03 23 3e 38 63 e6 3d
       -0.07165049 0.14558254 0.15919445 0.11249393
0001b0 96 f6 82 bd 36 89 33 bd 3e 5c 0c bd 99 78 9f bd
       -0.06394689 -0.043832026 -0.034267657 -0.07786674
0001c0 f7 eb 80 bd cb 45 21 bd e2 f2 95 3d 19 b2 f7 3d
       -0.06295007 -0.0393732 0.07321717 0.12094516
0001d0 12 94 99 3d 69 24 a6 bd a0 5f 6e bd da 8a 77 bd
       0.07498945 -0.081124134 -0.058196664 -0.060435154
0001e0 a0 f8 6b bd db f3 81 bd f3 55 38 bd d2 cc ae 3d
       -0.057610154 -0.0634534 -0.045003843 0.0853516
0001f0 83 80 e8 3d dd 90 8c 3d 3f 30 d9 bd 7a b2 c9 bd
       0.11352637 0.06863568 -0.10604905 -0.09848495
000200 24 cd e7 bd ea 95 b4 bc b9 f5 89 bd 0d 6c 88 bd
       -0.11318424 -0.02204414 -0.06736321 -0.06661234
000210 23 3f 29 3e f8 ab 30 3e 8d 34 cf 3d 21 26 27 3e
       0.16527991 0.17253101 0.10117445 0.16323139
000220 9d fb 59 3e f1 6c 8a 3e c9 35 e6 3d 34 27 19 3e
       0.21287389 0.2703624 0.112407275 0.14956361
000230 7a d9 5f 3e d0 16 00 bc a6 4d a5 3b 83 14 e8 3d
       0.21860304 -0.007817939 0.005044657 0.11332037
000240 2b 9f 65 be 51 f3 57 be 65 22 4b bd 25 8d 55 be
       -0.22423999 -0.21088912 -0.049593348 -0.20854624
000250 2b 1d 6f be dc 3b ef bd a5 70 40 be 8f ed 57 be
       -0.2335097 -0.11681339 -0.1879297 -0.21086715
000260 85 53 ba bd ed a4 a0 bd af 0e 62 bd de 96 f0 3d
       -0.09097961 -0.07843957 -0.055189785 0.11747526
000270 f0 63 d1 bd 73 bf c4 bd e3 2b 83 3d d0 34 46 bd
       -0.1022414 -0.096068285 0.06404855 -0.04839021
000280 85 91 26 bd f3 94 00 3e bb ee 13 3e aa 86 32 3e
       -0.040666122 0.1255682 0.14446537 0.17434183
000290 95 53 12 3e 98 04 d9 bc ab 04 92 bc d3 a1 56 bc
       0.14289697 -0.026491448 -0.017824491 -0.013100105
0002a0 a9 7a cf bd da 0c f0 bd ff 09 fb bd 68 13 21 3e
       -0.101308174 -0.11721201 -0.12257766 0.15730059
0002b0 d0 7b 34 3e 91 7b 26 3e 79 dc 21 bd 63 5a a5 bd
       0.17625356 0.16258074 -0.0395169 -0.080738805
0002c0 79 e3 40 bd 8f 71 1b be ba 6b 3e be 7b 67 23 be
       -0.047091935 -0.15180038 -0.18595782 -0.15957443
0002d0 f5 b1 b7 3d 6b 7c de 3d 88 57 07 3e cf b7 74 3c
       0.089694895 0.108635746 0.13216984 0.0149364015
0002e0 8e 83 da bb 11 03 c5 3c a0 92 8b bd c5 03 ae bd
       -0.0066685146 0.024049314 -0.06815076 -0.08496813
0002f0 ea 2b 7f bd 24 c6 02 3e f8 29 20 3e 68 ce 06 3e
       -0.06229774 0.12770897 0.1564101 0.13164675
000300 40 c9 40 bc 87 ba ae bc 91 1c 0a bc 41 cc ef bd
       -0.011766732 -0.021329178 -0.008429662 -0.1170888
000310 fa 53 03 be d4 03 df bd 5f 42 07 3e 20 f1 0b 3e
       -0.12825003 -0.10889402 0.13208912 0.136662
000320 5b 9b f6 3d e5 09 b0 bc a4 78 01 bd 4c ca f1 bc
       0.120413505 -0.021489093 -0.031609192 -0.029515408
000330 a4 c1 04 be 53 1b 15 be ba 0b 0c be 07 a7 91 3d
       -0.12964493 -0.14561205 -0.13676348 0.07111936
000340 07 ef 92 3d 60 3e c4 3d 1d da 84 3a 3a 7e bb 3a
       0.07174497 0.095822096 0.0010135804 0.0014304586
000350 5a 36 c8 3c d1 1f 5c bd f3 b7 72 bd ca 87 6d bd
       0.02443998 -0.05374128 -0.05925746 -0.057990827
000360 8d 53 0c be 1c e1 28 be 48 61 e0 bd d7 4b 03 be
       -0.13703747 -0.16492122 -0.10956055 -0.128219
000370 54 38 12 be 24 3b eb bd ba 26 11 be d2 6c 1b be
       -0.142793 -0.114858896 -0.1417493 -0.1517823
000380 f2 a5 0b be 1d 6a 84 3d 2b b2 83 3d fb 80 c2 3d
       -0.13637522 0.06465552 0.06430467 0.09497257
000390 42 44 13 3d a5 60 68 3d da e1 9d 3d 28 5c 67 3c
       0.035953768 0.056732792 0.077090934 0.014121093
0003a0 cb 0e 12 3d 5c 54 41 3d 86 02 52 3d 8c f9 7b 3d
       0.03565864 0.047199592 0.051271938 0.061517283
0003b0 1c 12 62 3d 57 fc 36 3c e8 45 4d 3d 74 2c 1c 3d
       0.05519305 0.011168561 0.050115496 0.03812833
0003c0 44 f3 0e 3d 92 0d 4e 3d c7 ae 4a 3d 38 90 ca 3d
       0.034899965 0.05030591 0.049483087 0.09890789
0003d0 d4 85 4f 3e 3e ef d2 3d 51 06 bf bd d3 52 d1 bd
       0.20265895 0.10299538 -0.09327377 -0.102208756
0003e0 80 bc 90 bd 2f 44 bd bc b7 3c 67 bd 84 ca c2 bc
       -0.070672035 -0.023103802 -0.056454387 -0.023778208
0003f0 7b 7c d5 3d bc 1d 44 3e 7e 1d b9 3d ca 1d bd bd
       0.104241334 0.19151968 0.09038828 -0.092341974

b0 f4 [32]
000000 87 f8 05 be 54 47 c5 3c 06 82 fb 3c a7 94 c7 3d
       -0.13083087 0.024081863 0.030701648 0.0974515
000010 18 e0 4d bd a9 24 1e bd dc 4a 12 bc bc a2 b3 bb
       -0.05026254 -0.03860918 -0.008928981 -0.005482046
000020 e4 a3 55 be 21 a7 f8 bc 7e 44 24 bd 5a bc 52 be
       -0.208633 -0.03035313 -0.04010438 -0.20579663
000030 7f 33 25 be d0 e0 ab 3d 43 80 c3 bd 3b 9b 15 3d
       -0.16132925 0.08392489 -0.09545948 0.036524992
000040 72 6b 9f bd fb 27 d0 bc 2a c6 e8 bd fd b5 d6 bc
       -0.077841654 -0.02540969 -0.11365922 -0.026209826
000050 7a c7 18 bc 45 c7 35 3d 80 33 a3 bc 1f b4 ee bb
       -0.009324903 0.04437949 -0.019922018 -0.0072846557
000060 b5 bf d5 3c a7 6b 5d bd 0e 50 ba bb 97 8e 4e bb
       0.02609239 -0.054057743 -0.005685813 -0.0031518096
000070 e8 9b d2 bd 1a 0e 26 3d 11 52 13 bd 04 cf a7 b9
       -0.10283643 0.040540792 -0.035966936 -0.0003200696

W1 f4 [16, 32, 3, 3]
000000 8a 18 a6 3d ce 37 8d 3d f8 16 9c 3d 4c 48 6f 3d
       0.08110149 0.068954095 0.076215684 0.058418557
000010 50 36 31 3d 7e ce 5e 3d a1 fb 39 3d b4 d9 16 3d
       0.043264687 0.054396145 0.045405988 0.03682871
000020 29 4b 35 3d 1d c7 ac bd e2 0c af bd 3d 5c 03 bc
       0.04426113 -0.08436415 -0.08547379 -0.008017597
000030 34 37 d0 3d db 83 dc 3d da 90 a9 3d ed 9d c7 3d
       0.10166779 0.10767337 0.08279581 0.09746919
000040 31 ba 9b 3d 6a 81 b8 3c 55 78 54 3d 72 2c 3a 3a
       0.076038726 0.022522647 0.05187257 0.000710196
000050 44 25 6c 3d 05 27 ea 3d cd 05 6d 3d 41 b7 86 3d
       0.057652727 0.11433224 0.05786686 0.06577922
000060 0e bf 8e 3d ae b9 59 3d 45 40 0d 3c f0 73 9d 3c
       0.069700345 0.053155594 0.00862128 0.019220322
000070 d8 43 9e 3b f3 72 98 3c 1f 09 e2 3d b0 4e 14 3e
       0.004829865 0.0186095 0.11036896 0.14483142
000080 98 2a e0 3d 61 ea d3 3d 8e 20 c7 3d 88 c5 de 3d
       0.10945624 0.103474386 0.09723006 0.1087752
000090 cf 3d e3 3d 7f c3 8a 3c f6 8b 51 3c 9c 6d ec 3d
       0.110957734 0.016938923 0.012789717 0.11544344
0000a0 4a 99 f4 3d 88 8c d9 3c bb 9a 8c 3d 3a 9f a1 3d
       0.119433 0.026556268 0.0686545 0.07891698
0000b0 3a f6 16 3e 3b 87 50 3d 9a 09 c8 3d f9 bf 07 3e
       0.14742365 0.050910216 0.09767456 0.13256826
0000c0 17 3c cf be d9 6b 02 bf 0a 44 a5 be 85 89 e2 bd
       -0.40475532 -0.5094581 -0.32278472 -0.11061386
0000d0 0f f3 91 be 38 b4 0d be 0c 7e db bd 16 12 ba bd
       -0.28505751 -0.13838279 -0.10717401 -0.09085481
0000e0 19 30 d9 3d 71 c8 95 3c 4e 5e 63 bd 78 5f 0a 3d
       0.10604877 0.018284054 -0.055509858 0.033782452
0000f0 4f 93 90 3d f7 ce 2b bc cf c2 5f bd 33 cb 6d bd
       0.07059347 -0.010486356 -0.054629143 -0.058055114
000100 33 62 50 bd ab 11 dd 3d 55 4e c1 3c be ba f5 ba
       -0.0508749 0.107943855 0.023596922 -0.001874767
000110 c7 1e 2f 3d 82 bd ab 3d bf 05 82 3c 9f af d9 3b
       0.04275396 0.08385755 0.01587188 0.00664325
000120 88 70 46 be a0 2d 7d be 51 21 3f be 54 d5 4f be
       -0.19378865 -0.24724436 -0.18665053 -0.20296222
000130 5f fa 66 be e8 77 51 be ec d1 ec bd 10 51 3d be
       -0.22556446 -0.20455897 -0.11563477 -0.18487954
000140 c0 41 47 be 1d e1 02 be 26 09 c9 bd 9b 0b bb 3d
       -0.19458675 -0.12781186 -0.09816198 0.09133073
000150 11 96 37 3b 73 3c a8 bd 34 9f ec bc e8 74 94 3c
       0.002801303 -0.08214655 -0.028884508 0.018122151
000160 c5 c2 17 bd 64 53 91 bd a5 4e c2 8f e8 4b 82 90
       -0.03705098 -0.070959836 -1.916017e-29 -5.139291e-29
000170 ee 32 c8 0f 20 b9 9d 90 f7 bc 22 11 5d ec 88 0e
       1.974114e-29 -6.221081e-29 1.2837776e-28 3.3754198e-30
000180 5a 07 8e 90 62 1b ab 91 b2 93 43 93 74 a0 e1 bd
       -5.602045e-29 -2.699592e-28 -2.468528e-27 -0.11016932
000190 dd 00 e7 bd ed 6a ad bd 13 d1 2f bd 59 5f 75 bd
       -0.112794615 -0.0846766 -0.042923998 -0.059905384
0001a0 3e 1a a5 bd ff ec 2b bd d9 68 a8 bd 74 c0 1a be
       -0.08061646 -0.041974064 -0.08223123 -0.15112478
0001b0 6f 2b b2 3d 3e fd 95 bc f9 6e 83 3c 62 ac 8e bb
       0.086996906 -0.018309232 0.016044127 -0.0043540457
0001c0 19 1e 80 bd 0f c3 09 bd e8 db 29 3d 22 b7 9f 3b
       -0.06255741 -0.033633288 0.041469485 0.004874126
0001d0 a1 63 a7 bb c7 f7 77 bc b0 55 df bc d2 5e 14 3c
       -0.0051083122 -0.015134758 -0.027262539 0.00905581
0001e0 87 60 e2 3d 81 56 11 3e 72 66 f2 3d 57 61 ff 3d
       0.110535674 0.14193155 0.11835946 0.12469738
0001f0 c2 e7 19 3e 18 2a cf 3d f6 86 b6 bd fd 00 0c be
       0.15029815 0.101154506 -0.089124605 -0.13672252
000200 3f c8 1f bd e6 58 6f be 8e fa 97 be df 70 75 be
       -0.03900933 -0.23373756 -0.29683346 -0.23968838
000210 1a 99 eb bd 8a 5d 5b be 7c c7 3d be f5 f7 1f 3d
       -0.11503811 -0.21422401 -0.18533128 0.03905483
000220 de d3 93 3c 33 fe 85 3d d1 78 29 3e 9b 31 23 3e
       0.018045362 0.06542625 0.16549994 0.15936892
000230 e3 03 1c 3e 2d 46 0e 3e bf 8d f8 3d c1 d8 92 3d
       0.15235858 0.13893957 0.12136411 0.07170249
000240 ee 59 53 bb 59 8a 84 bd be 8b 76 bc 70 b7 71 bc
       -0.0032249647 -0.064717 -0.015047966 -0.014753208
000250 80 33 e5 bc 6f 32 fa bb 7b 32 b9 bb 05 b4 cb bc
       -0.027978659 -0.0076354067 -0.0056517697 -0.024866113
000260 d0 7f 0d 3b 9d 49 bc be 88 be 21 be 4c 5d 3d 3e
       0.0021591075 -0.36774912 -0.15795338 0.18492621
000270 3e 09 34 bc 1e 0d 07 be 6b e8 00 3d e6 46 8d 3d
       -0.010988532 -0.13188598 0.03147165 0.068982884
000280 da 75 f9 3c 93 c2 7e bd e9 08 5e bc ee 5d aa bc
       0.030451704 -0.06219728 -0.013551929 -0.020796742
000290 ec 97 10 3c fb ef 84 bb 81 fc bf 3b 98 33 ff 3b
       0.0088252835 -0.004056928 0.0058589582 0.007788133
0002a0 20 e7 34 bc ca c8 b1 3b af b5 34 bc 4b c2 ae bd
       -0.011041433 0.0054255472 -0.011029645 -0.08533152
0002b0 08 97 ad be 2d 27 93 be 79 66 ee bb 67 37 06 be
       -0.3390429 -0.28740826 -0.0072753993 -0.13107072
0002c0 51 ac 95 bd 09 34 b5 bb 51 fa 8b bd b5 41 36 3e
       -0.07308257 -0.0055298847 -0.068348534 0.17798503
0002d0 fb 7b 94 3d df 5b 11 3c 8e 8b e2 3b 41 6f 50 3e
       0.0725021 0.008872001 0.006913609 0.2035494
0002e0 3a bb 19 3e 79 26 a4 3d 6e 18 eb 3d b5 22 f1 3d
       0.15012828 0.080151506 0.11479269 0.11774198
0002f0 7f 73 19 3e 4c f8 6e 3c 61 cb b0 39 17 0c 24 bb
       0.14985465 0.014585566 0.00033720865 -0.002503162
000300 cb 17 b3 3d 02 b6 c9 3d 61 a7 98 3d 3c b2 c4 3d
       0.087447725 0.09849168 0.074538 0.09604308
000310 f2 56 bc 3d 1b 05 d8 3c 97 75 e5 bd f3 7e c5 bd
       0.09196271 0.026369622 -0.11204069 -0.09643354
000320 89 58 f3 3d 4c 98 82 3c 02 8d 72 bd d2 17 8a 3c
       0.11882121 0.015941761 -0.059216507 0.016857062
000330 10 65 e5 3c d4 01 27 bd b8 86 58 bd 8c b9 47 3e
       0.028002292 -0.040773228 -0.052862853 0.19504374
000340 de 55 52 3e a8 bf 0b 3e 2f 7a 11 be f4 d8 91 be
       0.20540568 0.1364733 -0.14206766 -0.28485835
000350 cf e3 95 bc 48 13 89 3e 34 e1 54 3e 2b 52 c6 3e
       -0.018297104 0.26772523 0.20789033 0.38734564
000360 3c 2d d8 3c 6d 11 ef 3c d3 01 af 3d a2 85 f6 bd
       0.026388757 0.029183114 0.0854527 -0.12037207
000370 54 c1 13 be 73 12 07 bd 51 30 85 3d 53 4f 64 bd
       -0.14429218 -0.03297658 0.06503356 -0.055739712
000380 11 81 96 3d 07 aa 14 bc 0c 89 f5 bb 82 53 7e bc
       0.07348836 -0.009073741 -0.007493144 -0.0155228395
000390 26 26 2f bc 3c fc 65 bb 21 0e c8 bb 72 b6 87 bb
       -0.010690248 -0.003509297 -0.0061052 -0.004141622
0003a0 79 78 bd bb e8 80 d3 bb a2 aa 84 be 88 fe 1f be
       -0.0057821837 -0.006454576 -0.25911433 -0.1562444
0003b0 b1 1c 74 bc 24 30 b5 bd ab c9 52 be 44 da 5e bd
       -0.014899419 -0.08847073 -0.20584743 -0.054407373
0003c0 b0 20 c1 3d 6f 87 e0 3c 31 75 a0 3d b2 b7 b5 bd
       0.09430063 0.02740833 0.078348525 -0.08872928
0003d0 4d b0 8d bd f9 3d a6 3d 51 a6 00 3d b3 65 cb b9
       -0.06918392 0.08117289 0.03140861 -0.0003879495
0003e0 36 ca f6 3c 26 65 8b 3d 40 a0 97 3c 77 5e 8d ba
       0.030125719 0.06806402 0.01850903 -0.0010785599
0003f0 5b 47 e3 3c 58 4c 2f 3d 2d 21 c8 3d f0 f0 39 3e
       0.027743986 0.042797416 0.09771953 0.18158317

b1 f4 [16]
000000 14 c4 07 3e 0f 6c 93 bc f0 f1 1a bc b3 fc 03 bd
       0.13258392 -0.017995862 -0.009457096 -0.032223415
000010 e6 d0 c6 bc b2 ee 5c 3d a6 94 8a bc 26 e8 a6 bc
       -0.024269532 0.053938575 -0.016916584 -0.020374369
000020 8b 09 4a 3d 46 6a d1 bc 7f 34 b8 3d 36 c1 ca bc
       0.049325507 -0.02556337 0.08994388 -0.024750333
000030 72 5e 05 3e 6c cc 8a 3e 36 51 93 bc b6 6c 93 bc
       0.1302431 0.27109087 -0.01798306 -0.017996173

W2 f4 [64, 16, 3, 3]
000000 61 a4 17 3e c3 81 86 3e 05 c3 71 3e 9e de 01 bc
       0.148088 0.26270875 0.2360955 -0.007926611
000010 50 63 9d bb e7 17 97 3c 05 ca 14 be 46 82 50 be
       -0.0048030987 0.018444015 -0.1453019 -0.20362195
000020 e2 4a 8e bd d6 02 b9 0c 88 33 3c 0b 9f 79 ce 8b
       -0.069478765 2.850547e-31 3.624625e-32 -7.953131e-32
000030 c2 9d 23 8c ae 1f d0 0c 96 aa 04 0d 73 78 c7 0c
       -1.2604537e-31 3.206654e-31 4.0880976e-31 3.0733297e-31
000040 8c 61 0a 0d b8 04 12 8c 84 01 d6 23 11 b1 14 24
       4.264195e-31 -1.1248851e-31 2.3202568e-17 3.2242365e-17
000050 1b ad 84 24 1d 0e 6b 22 7e 8f e6 24 a6 ad 8f a4
       5.753913e-17 3.185591e-18 9.9989685e-17 -6.2310536e-17
000060 ec 55 d1 22 2b 5d b4 24 ab 7a 8f 24 a0 04 e3 3d
       5.6740537e-18 7.822039e-17 6.222417e-17 0.110848665
000070 dc dc ac 3e 13 64 1b 3e 52 71 8f 3e 6d be d2 3e
       0.33762252 0.15174894 0.28016144 0.41160908
000080 22 8a 55 3e 46 4d 16 3e bb c3 2e 3c 34 ad 68 3d
       0.20853475 0.14677915 0.010666783 0.056805804
000090 bc e1 46 8b 38 fc ba 8a 60 51 09 0b b5 fa 22 8c
       -3.8303237e-32 -1.8006023e-32 2.644646e-32 -1.255547e-31
0000a0 11 37 d8 0c 50 ca 2c 8b 98 20 b1 8b ef ee 05 0d
       3.3313211e-31 -3.3278198e-32 -6.822696e-32 4.1271395e-31
0000b0 47 8b e9 8c 7b 1a e8 3c 9f 72 b3 3d 01 64 3f bd
       -3.5983159e-31 0.02833294 0.087620966 -0.04672623
0000c0 ed 90 ce 3c bb e2 56 be 90 7c d9 bd e3 59 15 be
       0.02521559 -0.20984928 -0.106194615 -0.1458507
0000d0 e6 5a 01 bf 86 49 1f be 6c 3b 43 92 6c 64 fb 10
       -0.50529325 -0.1555539 -6.1604394e-28 9.915677e-29
0000e0 53 32 0b 95 9c eb 30 92 4b 36 11 12 8a bd 64 11
       -2.8110525e-26 -5.582622e-28 4.5820854e-28 1.8044435e-28
0000f0 b1 ad 66 14 b9 d6 60 93 c4 39 6d 94 70 d2 dc 8b
       1.1646287e-26 -2.8378641e-27 -1.19768345e-26 -8.505755e-32
000100 42 63 00 0c 92 7d d1 0b 50 a4 17 0c 3e 32 21 8b
       9.890631e-32 8.069281e-32 1.1682063e-31 -3.104527e-32
000110 80 ec e2 08 57 73 12 0c a0 36 81 8b 7c ed c8 0c
       1.3657481e-33 1.128214e-31 -4.9771183e-32 3.095781e-31
000120 e3 4e ad bd 17 38 03 3e a5 68 63 bd 5e 19 e6 3d
       -0.08462312 0.12814365 -0.05551972 0.11235307
000130 49 93 71 3d bf a4 cd 3d 1a cb ca bc 0e c4 f2 be
       0.058978353 0.100411884 -0.02475505 -0.47415203
000140 6d cd 51 bd 8e 51 23 ab 4b 11 1f b1 8e ab eb ae
       -0.0512213 -5.8022413e-13 -2.3147375e-09 -1.0717037e-10
000150 70 74 a5 ae 9e 78 13 b3 cd 68 f4 b1 89 67 c2 af
       -7.524015e-11 -3.4335805e-08 -7.113249e-09 -3.536196e-10
000160 5d b1 b3 b1 dd ac 1a b0 27 d1 21 3d 46 69 15 3e
       -5.2297495e-09 -5.6270527e-10 0.039506104 0.1459094
000170 3f 46 a4 bc a1 41 8c 3d 7a 09 0f bd 26 6a ca bc
       -0.020053027 0.06848455 -0.034921147 -0.024708819
000180 67 ae e9 bb d4 d9 98 be 21 93 9b 3d 62 df f5 8a
       -0.007131386 -0.2985369 0.07596422 -2.3676669e-32
000190 66 5f 6c 0c 40 03 78 0a df 27 ad 8a 9a 6c f4 0b
       1.8209487e-31 1.1941377e-32 -1.6674292e-32 9.4148787e-32
0001a0 3b 95 55 8c 94 43 a0 8b f4 19 df 8a 04 d3 4b 0a
       -1.645383e-31 -6.173144e-32 -2.1483881e-32 9.813782e-33
0001b0 98 2c 52 bd 21 cb 1b 3d 93 83 87 bd 54 03 cc 3d
       -0.05131206 0.038035516 -0.06616893 0.09961572
0001c0 f3 df 53 be 78 ad 24 be 9c 2d 51 bd d0 74 0a bf
       -0.20690899 -0.16081798 -0.051068887 -0.5408449
0001d0 e5 2b 4f be aa 2a 55 bc c8 85 ca 3c 93 35 44 3c
       -0.20231588 -0.01301066 0.024721995 0.011975664
0001e0 cc 62 3a be 1e 8e 12 bf 7e 7a 77 be 7a 7b 09 be
       -0.1820175 -0.57248104 -0.24167821 -0.13426009
0001f0 b4 81 0a bf 65 2e 8b bb 20 e2 13 0a 14 ef 21 8c
       -0.5410416 -0.004247474 7.120322e-33 -1.2474934e-31
000200 52 40 44 8c 3e 23 ac 0c b5 06 78 0c 63 6e de 0c
       -1.5118646e-31 2.6522007e-31 1.9107243e-31 3.4270952e-31
000210 12 c3 8b 0c c7 c2 6b 0c 06 c7 e3 8c 18 3d 82 8c
       2.1533745e-31 1.8162355e-31 -3.509467e-31 -2.006644e-31
000220 80 dd c1 8a 28 ca 19 8b 88 2a 5b 0b a2 d5 9d 8b
       -1.8668543e-32 -2.9618814e-32 4.2209863e-32 -6.079564e-32
000230 28 10 33 8c fa d4 8e 8c 0c 23 5e 0c 52 a7 bd 8b
       -1.379452e-31 -2.2006745e-31 1.7112804e-31 -7.305191e-32
000240 83 91 25 8d e7 3a f9 0c e8 33 b8 0b f6 a5 10 0d
       -5.1019704e-31 3.8399975e-31 7.095232e-32 4.4573194e-31
000250 c2 f1 1c 0c dd e0 08 8c cd 7a 44 8c 0b 69 eb 8b
       1.2090554e-31 -1.0544726e-31 -1.5136245e-31 -9.067676e-32
000260 dc 13 c1 8b b2 af c6 8a 15 da 8b 8b 6c 10 5e 8b
       -7.4370777e-32 -1.9132796e-32 -5.3868986e-32 -4.2768e-32
000270 46 b3 8a 0c b8 5c e2 0a 52 00 ae 0c 18 01 8a 0c
       2.1370163e-31 2.1797885e-32 2.6809138e-31 2.1262925e-31
000280 c6 32 a4 8c 46 31 c0 0c c6 ae 42 0c ca ba 23 8b
       -2.529876e-31 2.961194e-31 1.499781e-31 -3.1533183e-32
000290 30 16 9b 0b 46 8d 58 0c e6 68 93 8b 0f 17 36 8c
       5.973721e-32 1.6682548e-31 -5.6780174e-32 -1.4027709e-31
0002a0 98 84 65 8a 5c a7 30 0c 78 b8 32 8b b1 3f 65 8c
       -1.1050887e-32 1.360891e-31 -3.4420332e-32 -1.7660685e-31
0002b0 6e cd fc 8b 70 bd 1a 8b 06 63 a5 0c 54 52 56 8a
       -9.7375965e-32 -2.9801838e-32 2.5481873e-31 -1.03192094e-32
0002c0 a2 00 0a 0b c0 1c 2d 09 30 b7 cb 0a 7e 14 d5 8b
       2.657831e-32 2.0837636e-33 1.9617096e-32 -8.207545e-32
0002d0 da 86 b2 8a 9a 61 95 8b 74 eb f6 0a 68 41 a1 8a
       -1.7191502e-32 -5.7539567e-32 2.3777506e-32 -1.5528339e-32
0002e0 4c ae 0e 8c ab d3 9b 0b 98 fb 82 8b 5a 55 6f 8c
       -1.0991733e-31 6.002231e-32 -5.0452735e-32 -1.8437575e-31
0002f0 27 ab 60 8c 95 92 59 0c 6a 8d 51 0c 93 b1 a5 8c
       -1.7307837e-31 1.6761182e-31 1.614333e-31 -2.552915e-31
000300 e4 88 7b 0c 33 67 64 0c 00 58 ce 8a 03 9a e8 8c
       1.9377531e-31 1.7595536e-31 -1.987018e-32 -3.5837952e-31
000310 1b 71 96 0c 8c 0d ec 8b 1a d0 c8 8b 9e 35 98 8b
       2.3179232e-31 -9.0924276e-32 -7.7350314e-32 -5.8628944e-32
000320 34 b4 8f 0b a9 9a 44 0b 1c 58 d3 09 d0 a2 59 0b
       5.5352736e-32 3.786458e-32 5.087926e-33 4.1915166e-32
000330 92 61 72 0b 12 d1 c7 0b a9 87 e0 8b 5d ed d5 8c
       4.6680908e-32 7.6966586e-32 -8.648578e-32 -3.2960704e-31
000340 c1 8c d8 8c 68 c2 33 0b 64 e6 a6 0b 40 1c 7f 8a
       -3.3364783e-31 3.46204e-32 6.428753e-32 -1.22831166e-32
000350 1d ca 8b 8c 96 d6 19 0c d1 68 8d 8c 8f b7 0d 8c
       -2.1537983e-31 1.1851266e-31 -2.1787574e-31 -1.0917483e-31
000360 d2 cb fa 8b d2 7b e8 8b 39 3b 1c 8d d0 21 e3 8b
       -9.660317e-32 -8.9549454e-32 -4.81425e-31 -8.7488095e-32
000370 bc 43 2e 8c 06 28 42 0c 66 32 26 8c 1e 86 e4 0b
       -1.3424855e-31 1.495726e-31 -1.2803341e-31 8.80242e-32
000380 e0 a8 8e 0b b4 04 3b 8b b4 0b 7f 0c 14 8f 68 8b
       5.4950505e-32 -3.6018428e-32 1.9648007e-31 -4.4789215e-32
000390 51 d1 16 0c e4 69 36 8c ec 0c fe 0b 36 ec 3a 8b
       1.1618569e-31 -1.4052635e-31 9.7856684e-32 -3.6000002e-32
0003a0 9e 97 b9 8c 76 3d 60 0c e8 8c e7 0b 63 9b 0b 8c
       -2.8595014e-31 1.7274828e-31 8.9189976e-32 -1.075493e-31
0003b0 87 4f d9 8c 1c 5b a1 0b 1a be 01 0c d0 c8 31 0a
       -3.3482008e-31 6.215203e-32 9.995005e-32 8.560009e-33
0003c0 29 84 63 0c ab 00 0e 8d 6c 25 3e 0b c4 53 7b 0b
       1.7527214e-31 -4.3757932e-31 3.6620822e-32 4.840386e-32
0003d0 e6 d0 ee 8b ef 12 14 0b 94 fc 01 8a b6 4f 01 0c
       -9.198858e-32 2.8518007e-32 -6.258629e-33 9.961786e-32
0003e0 c8 de e4 8b 6f 24 11 8b d8 d2 e0 8b bb 9b e8 0a
       -8.815761e-32 -2.7953394e-32 -8.6598904e-32 2.2399367e-32
0003f0 b8 3a a4 0b b4 1b 25 0c 3b 7f 1b 0b db 11 1e 0c
       6.325885e-32 1.2719474e-31 2.9947632e-32 1.217725e-31

b2 f4 [64]
000000 bb 6a 64 3b 56 7e 93 bc ba c0 05 3c 02 91 93 bc
       0.0034853655 -0.018004578 0.008163625 -0.018013481
000010 30 0f cb 3d 1f 92 93 bc 32 ee e0 bc 75 91 93 bc
       0.09915006 -0.018014012 -0.02745733 -0.018013695
000020 53 8c 93 bc e5 24 b2 bc 1b 81 93 bc 3b 14 2e be
       -0.018011248 -0.021746108 -0.018005898 -0.16999905
000030 b3 58 93 bc 0e 27 21 be 5d 0b 4c bd 34 94 93 bc
       -0.017986631 -0.15737554 -0.049815524 -0.018015005
000040 70 34 5e be 20 8f b6 bd 9d 0f 23 be 3f 8b 93 bc
       -0.21699691 -0.08914018 -0.15923925 -0.018010734
000050 71 8a 93 bc 4e b4 93 bc 6d 59 d9 bc 32 fc 29 be
       -0.01801035 -0.018030312 -0.0265319 -0.16600111
000060 ab 2f 22 3c a1 f7 b7 bd 9f ff a3 3d ac f0 74 bd
       0.00989906 -0.08982778 0.0800774 -0.059799835
000070 ac 5f 93 bc 7b c3 5d bd 60 f3 82 bd b1 33 4d be
       -0.017989956 -0.054141503 -0.06394076 -0.2003925
000080 2e 18 52 3f c4 63 e3 bd e6 aa 8b bc 1b 91 e0 bd
       0.82068145 -0.11103013 -0.017049264 -0.10965177
000090 8f 8f 93 bc 14 85 93 bc a2 aa 0e be d5 b5 70 bd
       -0.01801279 -0.018007793 -0.13932279 -0.05876716
0000a0 31 21 c3 3d 30 9c 38 be 15 a3 76 bd be 76 c2 bc
       0.09527815 -0.18028331 -0.06021412 -0.023738261
0000b0 23 6a 18 be 0b ed f4 bc 2f 03 08 be 24 2c 1b bd
       -0.14884238 -0.029898187 -0.13282464 -0.037883893
0000c0 b8 81 32 bd 90 c7 2b bd d4 8d 93 bc 22 23 8f bc
       -0.04358074 -0.041938365 -0.018011965 -0.017472807
0000d0 69 8f 93 bc 0a f1 33 be 78 e3 a2 bc cd dd b8 3d
       -0.01801272 -0.17572418 -0.019883856 0.0902668
0000e0 10 d6 17 be 07 9d 9e bc 6f 7a 93 bc f4 33 54 bd
       -0.14827752 -0.019361986 -0.018002717 -0.05180736
0000f0 24 8b 93 bc da e1 a4 bc 9e 75 93 bc d2 6c 97 bc
       -0.018010683 -0.020127226 -0.01800042 -0.018484507

W3 f4 [1024, 10]
000000 7a e1 69 bd 37 a8 82 bc 0f e3 bc bc ac c0 93 3c
       -0.057099797 -0.015949352 -0.023057489 0.018036209
000010 50 99 38 3d d9 fc 97 3d ba 13 91 bd 06 40 58 3e
       0.045068085 0.07421274 -0.07083841 0.21118173
000020 df 7a 59 bd f4 55 ac bd eb be 19 be 8c 26 65 3d
       -0.053095695 -0.08414832 -0.15014236 0.055944964
000030 0c 90 27 bc 9e 1c 79 3e 7d 0a 5e be 7b e5 19 3e
       -0.010227215 0.24327323 -0.21683688 0.15028946
000040 0b c4 01 be f9 68 91 3e 1a 76 70 be c0 0b f9 3d
       -0.1267244 0.284004 -0.23482552 0.12160444
000050 0e 71 43 be 40 11 f9 3c 85 4c 10 3c 6e 74 6f 3e
       -0.19086096 0.030403733 0.008807306 0.23384258
000060 6f 70 4a be 13 f1 2f 3e d7 d8 0e be 15 60 8d 3e
       -0.19769453 0.17181806 -0.13949905 0.27612367
000070 b2 e7 42 be 81 09 08 3e b1 28 bf bd 44 98 6f bb
       -0.19033697 0.13284875 -0.09333933 -0.0036559263
000080 45 8a 25 bd d8 bd d9 3d 14 69 d5 3d 85 f6 05 3e
       -0.040415067 0.10631913 0.10420433 0.13082321
000090 51 fa cb bd c5 61 2b 3e 14 a6 33 be 5d f0 62 bd
       -0.099598534 0.16736515 -0.17543823 -0.05540501
0000a0 61 71 ab bc da 3f 96 3c 58 66 66 be 89 13 82 3d
       -0.020928087 0.018340994 -0.22499979 0.06351382
0000b0 3c ff 3e be 1a 18 da 3c dd 6b 41 3e 58 ce 13 3e
       -0.18652052 0.02662282 0.18888803 0.14434183
0000c0 f4 cb a5 bb 77 b3 82 bc 44 45 b7 3d 22 ad d8 bd
       -0.0050597135 -0.015954716 0.08948758 -0.105798975
0000d0 bf 2f f9 3d 36 b3 55 3d c2 a3 a1 3d 14 8f ac 3e
       0.1216731 0.052172862 0.078925624 0.3370291
0000e0 2a 11 33 be 81 1a 7c 3d 2b 5c 44 be 66 58 ab bd
       -0.17487016 0.061548714 -0.19175784 -0.0836647
0000f0 d8 f6 cc 3c 79 86 da bd 32 d5 35 3e e1 13 49 bc
       0.025020048 -0.1067018 0.17757109 -0.012272806
000100 95 74 af 3d 15 ea b9 3e 7c 3e 2f be f0 7f 06 3e
       0.08567158 0.36311403 -0.1711368 0.13134742
000110 3c 25 2a be 37 d3 05 be 0b 7f 4d bd 2b 64 4e 3d
       -0.16615766 -0.13068853 -0.050169986 0.050388496
000120 2b 5c 77 be db f5 1a 3d c8 0a a5 bd 85 5e 29 bc
       -0.24156253 0.037832122 -0.08058697 -0.010337477
000130 d3 21 0f 3e 57 36 1b 3e 98 e8 3d 3b bf bd 2f 3c
       0.13977747 0.15157448 0.0028977748 0.010726391
000140 c1 73 01 be a2 aa dd 3d bd 4c 98 be 01 4b 05 3d
       -0.12641813 0.10823561 -0.29746047 0.032542232
000150 4d e5 ca bd f2 4e 0a be 70 bf 8b 3c 86 bd 0f bb
       -0.09907017 -0.13506678 0.017059058 -0.0021933033
000160 6e 35 59 bc 66 5e 86 3e e1 51 5c 3e f1 d9 14 3e
       -0.013257368 0.26243895 0.2151561 0.14536263
000170 b7 4f d6 bd 43 2c 81 be 66 36 8f 3d f9 e2 11 be
       -0.10464423 -0.25229082 0.069927976 -0.1424674
000180 1a 70 de bd 5d 84 60 3c 31 63 81 be da a8 0a 3e
       -0.108612254 0.013703433 -0.2527099 0.13540974
000190 f4 27 f1 3d a0 ac e9 3d 70 fd b3 bd 56 97 88 be
       0.117751986 0.11409879 -0.08788574 -0.2667796
0001a0 c1 6f 0f 3e 2d fe 09 be f5 df 4a bd e6 cc 4c 3c
       0.14007474 -0.13475867 -0.04952999 0.0125000235
0001b0 16 74 34 be c9 49 c3 3d de 73 42 be 88 1b 88 3e
       -0.17622408 0.09535558 -0.18989512 0.26583505
0001c0 a0 44 95 be 4b d5 56 bd 97 7d 23 be 97 71 76 be
       -0.2915392 -0.052449506 -0.15965877 -0.24066769
0001d0 3e 3f aa 3d 1e 17 a9 bd 08 89 31 3d e3 d0 83 3e
       0.08312844 -0.082563624 0.043343574 0.25745305
0001e0 08 6e 28 3d 03 40 a4 bd 62 78 be 3d 7e ab 4d 3d
       0.04112056 -0.08020022 0.09300305 0.050212376
0001f0 2e cf 49 3d 19 eb 2e bd b3 00 51 3d 9b 9a cc bd
       0.049269848 -0.042704675 0.051026057 -0.09990426
000200 ab 54 7e 3a 9e 48 0f bd a0 e0 a4 bd 91 c8 d2 bb
       0.00097019476 -0.034981363 -0.08050656 -0.006432601
000210 35 6b da 3d d1 f9 19 bc 0a 7a 7d bd 7e 4f 0a 3d
       0.10664979 -0.00939794 -0.061883964 0.033767216
000220 5f c5 21 3e 98 1e 5a be a6 50 d2 3d 35 a7 91 bc
       0.15797947 -0.21300733 0.10269289 -0.017779926
000230 ce 78 3c bd 5e a5 99 bd 25 85 02 3e 4a 09 d8 3c
       -0.046013646 -0.075022444 0.12746103 0.026371617
000240 e5 eb e2 bd c6 04 53 3d 7e a6 44 3e d8 dd 47 be
       -0.110801496 0.051518224 0.19204137 -0.1951822
000250 f0 b7 e8 3d f4 9e 24 bd 98 4c ca 3d 02 f8 1b be
       0.11363208 -0.040190652 0.0987789 -0.15231326
000260 0c 85 cc 3d 0d 65 03 3d 8d 28 76 3d 4e 5e 39 bd
       0.09986314 0.03207879 0.060097266 -0.04525595
000270 5a 9b 0e 3e fd 50 68 bd 7f 9d 23 bc fa c6 a1 bd
       0.1392645 -0.05671786 -0.00998628 -0.0789928
000280 88 49 99 8c e5 e4 3e 0c 59 69 3a 0c 32 f2 64 0d
       -2.3617638e-31 1.4705948e-31 1.4360621e-31 7.0549456e-31
000290 13 40 e8 8c 1e 49 ef 8c 80 e7 a7 0b f0 8c 1d 0d
       -3.5783823e-31 -3.6867786e-31 6.467438e-32 4.8549008e-31
0002a0 5c 95 b3 0c 94 0c ab 8c 9c c4 06 8b a8 ec 33 8c
       2.766921e-31 -2.6354292e-31 -2.5955374e-32 -1.3860875e-31
0002b0 6e 32 19 0d f2 c6 85 8d 0c 6f 25 0d 34 41 c9 0c
       4.7207468e-31 -8.244652e-31 5.097822e-31 3.1008196e-31
0002c0 02 23 e1 8c 4c 6c 95 0b d0 5b 25 8b 44 5c d4 8d
       -3.4687809e-31 5.755566e-32 -3.1846916e-32 -1.3087721e-30
0002d0 20 31 98 0c 4c 85 7a 8b da 4e 12 0d 5c 00 9e 0d
       2.3448874e-31 -4.824853e-32 4.5084638e-31 9.737588e-31
0002e0 e0 0d 80 8d a0 a4 0c 0d fc 14 b3 8b 98 94 27 0b
       -7.891949e-31 4.333899e-31 -6.8979866e-32 3.227482e-32
0002f0 74 51 a9 8c a5 13 e2 0c de 98 b1 8b d4 a4 d5 0a
       -2.6087596e-31 3.4832637e-31 -6.840793e-32 2.0573155e-32
000300 fc 23 de 0c 4a 7b 60 8d 99 86 a4 0c f2 0f 84 8c
       3.4226173e-31 -6.9173733e-31 2.534921e-31 -2.0347417e-31
000310 bc 60 a5 0b 33 3d a3 8c b4 13 79 8b d8 bf 80 8d
       6.370124e-32 -2.515096e-31 -4.797048e-32 -7.934794e-31
000320 a1 5e 73 0d 22 5c af 8c c8 88 ec 8b 76 40 62 0d
       7.499406e-31 -2.701847e-31 -9.11097e-32 6.971922e-31
000330 42 a0 36 0d 3f 0d 91 8c 1c e8 6e 0c c6 f4 1c 8c
       5.6275983e-31 -2.234876e-31 1.8404701e-31 -1.2091462e-31
000340 56 40 b3 8b da 27 8c 8d 1f f5 38 0d a3 19 50 8d
       -6.9045094e-32 -8.63776e-31 5.699443e-31 -6.4125808e-31
000350 e6 5b 1b 0c a0 d3 8a 0d 0c a2 71 0d 32 46 04 8c
       1.196842e-31 8.5558535e-31 7.4458915e-31 -1.0190034e-31
000360 7c b2 a3 0b f2 f7 4c 0d 47 27 e1 0c db d5 a6 0d
       6.305387e-32 6.3160807e-31 3.4690378e-31 1.0282024e-30
000370 9b 88 43 0d 86 fc 79 0c 08 95 06 0d 1d 34 9c 8d
       6.0253447e-31 1.9258253e-31 4.147133e-31 -9.626788e-31
000380 38 3d 89 8d 00 80 21 89 94 35 ad 0a 8a 3f 7a 8d
       -8.458015e-31 -1.9439855e-33 1.6679448e-32 -7.711368e-31
000390 ca 59 b5 8c 47 df ed 8d 11 27 06 8d be d7 c9 0b
       -2.7941505e-31 -1.4660005e-30 -4.1338962e-31 7.7746997e-32
0003a0 0c af 2c 0d e4 19 43 8d e3 2a 5f 8d ce 08 a4 0c
       5.3212297e-31 -6.012018e-31 -6.8768803e-31 2.52735e-31
0003b0 1e f7 44 0c 0c 90 6f 8c 36 e6 8e 8c e5 47 c6 0d
       1.5173655e-31 -1.8455238e-31 -2.2017117e-31 1.222e-30
0003c0 0b 66 b8 8c 74 81 d2 0b 18 fb 94 8b 4c a5 80 8d
       -2.8411104e-31 8.108384e-32 -5.738533e-32 -7.928403e-31
0003d0 60 20 77 8b c0 39 6b 09 fd 01 03 0c 4b c0 fd 0c
       -4.7594826e-32 2.831425e-33 1.0092471e-31 3.9096554e-31
0003e0 20 7e 1e 0d 55 d9 c0 0d 97 36 47 0c f8 cc e5 0c
       4.8839326e-31 1.1885234e-30 1.534683e-31 3.5406398e-31
0003f0 d4 10 01 8d a8 27 e9 8b 25 a2 8f 8d a2 88 df 0c
       -3.977145e-31 -8.9808004e-32 -8.85209e-31 3.4440823e-31

b3 f4 [10]
000000 de 94 a0 be 92 bb b0 be 64 d0 86 3e e4 ef 6f 3e
       -0.31363577 -0.34518105 0.26330864 0.23431355
000010 58 29 c8 3e bf 2c 0f 3e 0b f7 c0 3e 28 07 d1 3d
       0.39094043 0.13981913 0.3768848 0.10206443
000020 49 36 98 be 77 f7 b1 be
       -0.29728916 -0.34759113
