2020/A3_solution/overfit_deepconvnet.pth (torch, 111776 bytes, 10 tensors)

W0 f4 [8, 3, 3, 3]
0	0xbe18bf19	-0.14916648
1	0xbdea9a02	-0.11455156
2	0xbea791b8	-0.32728362
3	0xbd66ab06	-0.056315444
4	0xbdb04b65	-0.0860813
5	0xbdcfa67e	-0.10139178
6	0xbdce1a3c	-0.100635976
7	0xbd993daf	-0.07482468
8	0xbdcea55f	-0.10090136
9	0xbdc13383	-0.09433653
10	0xbe740958	-0.2383169
11	0x3e319bc9	0.17344584
12	0xbd21ce62	-0.039503463
13	0xbdb6fefa	-0.08935352
14	0x3dd9f42f	0.106422774
15	0x3dc0b97e	0.0941038
16	0xbd044909	-0.032296214
17	0x3e2ce055	0.16882451
18	0x3dabe9a1	0.083941706
19	0x3d1a4e9f	0.037672635
20	0xbdb78056	-0.08960025
21	0xbe546104	-0.20740134
22	0xbe0d04df	-0.1377139
23	0xbe0a943b	-0.13533108
24	0x3bc6933e	0.006060033
25	0x3ae9013a	0.0017776855
26	0x3e80df55	0.2517039
27	0x3e301701	0.17196275
28	0x3d2ed3bc	0.042682394
29	0xbdd5a1f3	-0.1043128
30	0x3e715515	0.23567612
31	0x3c9690a4	0.018379517
32	0xbdb3ea30	-0.08784902
33	0x3d805df5	0.06267921
34	0xbcb2e196	-0.021836083
35	0xbdb7a2a6	-0.089665696
36	0x3d0702be	0.0329616
37	0x3d31ac82	0.043377407
38	0x3d017bb4	0.031612113
39	0x3e8255a8	0.25455976
40	0x3d315ce6	0.043301485
41	0x3c7cd93a	0.01543265
42	0x3e861dba	0.26194555
43	0x3e07dd77	0.13268076
44	0xbd189947	-0.03725555
45	0x3e4c2e9a	0.19939652
46	0xbdde8a79	-0.10866255
47	0xbdbd3e48	-0.09240395
48	0x3d96b368	0.07358438
49	0x3d98337b	0.07431694
50	0x3c7b795d	0.0153487595
51	0x3da1ff59	0.07910032
52	0x3e12bfaa	0.14330927
53	0xbe0890ff	-0.13336562
54	0xbd1c72d5	-0.03819545
55	0x3d0e2983	0.034707557
56	0xbd402d08	-0.046917945
57	0xbdb49998	-0.08818358
58	0xbdc04cfb	-0.09389683
59	0x3db46e77	0.08810132
60	0x3c852664	0.016253658
61	0x3c71363d	0.014722404
62	0x3d9391f5	0.072055735
63	0xbe5b329e	-0.21406028
64	0xbdbaf1bb	-0.09128138
65	0xbe2fb76e	-0.17159817
66	0xbc1ec944	-0.00969154
67	0xbe592b15	-0.2120784
68	0xbe2f8963	-0.17142253
69	0xbd8c529c	-0.06851694
70	0x3c2bba78	0.010481469
71	0xbda6ce16	-0.081447765
72	0xbe29f0fe	-0.16595837
73	0xbdfdef61	-0.123991735
74	0x3c6b6d6c	0.01436935
75	0xbe830b28	-0.2559445
76	0xbd3fe0e7	-0.046845343
77	0xbd788e94	-0.060682848
78	0xbd1b9a2f	-0.037988838
79	0xbdda286d	-0.10652242
80	0xbd88119a	-0.06643982
81	0x3dc46a84	0.09590629
82	0xbeb2a1f6	-0.3488919
83	0xbcfc445f	-0.03079432
84	0x3d54234d	0.051791478
85	0x3e28e216	0.16492495
86	0xbd53bbdc	-0.05169283
87	0x3d61ecd6	0.055157505
88	0x3cfe9b32	0.031079862
89	0xbdadf3e3	-0.08493783
90	0x3e044ea6	0.12920627
91	0x3df81d68	0.12114984
92	0xbd90f472	-0.07077874
93	0x3e03fd01	0.12889482
94	0x3e069db7	0.13146101
95	0xbe2c4d17	-0.16826282
96	0x3d67d3b6	0.056598388
97	0xbe0c4032	-0.13696364
98	0xbe28045c	-0.16407913
99	0xbcab8552	-0.020937596
100	0xbd2887c9	-0.04114512
101	0xbda1ff6f	-0.07910048
102	0x3e03129d	0.12800069
103	0x3dce4bea	0.10073073
104	0xbe674ef8	-0.22588718
105	0x3de76c31	0.11299933
106	0x3db902f5	0.09033767
107	0xbe1bc81e	-0.15213057
108	0x3cb7a2b8	0.022416458
109	0xbd333dfc	-0.043760285
110	0xbe4b3de9	-0.19847836
111	0xbc804996	-0.015660089
112	0x3e658f43	0.22417931
113	0x3dbeaac7	0.09309917
114	0x3db9029f	0.09033703
115	0xbe1373b2	-0.14399603
116	0xbcd01bdf	-0.025403915
117	0xbe47cb85	-0.1951123
118	0x3e03ed9c	0.1288361
119	0xbc8ddca7	-0.01731713
120	0x3e61780c	0.2201845
121	0xbd88694d	-0.066607095
122	0x3e5b555e	0.21419284
123	0xbcfdc9d2	-0.030980024
124	0xbdc35a0e	-0.09538661
125	0xbc74ee05	-0.014949326
126	0xbdd4f34d	-0.103979684
127	0xbd908cd7	-0.07058113
128	0xbe1ab888	-0.15109456
129	0xbda87559	-0.08225507
130	0xbd93f2a5	-0.07224015
131	0x3e695701	0.22787096
132	0xbe2d27d1	-0.1690972
133	0x3dca59c8	0.09880406
134	0xbe6c864c	-0.23098105
135	0xbe183f2e	-0.14867851
136	0x3ba7a672	0.0051162774
137	0xbd8ec0f0	-0.06970394
138	0xbd867720	-0.0656569
139	0xbcfc2bfe	-0.030782696
140	0x3d69f7cf	0.057121094
141	0xbdaae9a4	-0.08345345
142	0x3ca99618	0.020701453
143	0xbdc572e7	-0.096410565
144	0xbdeb0f4e	-0.114775285
145	0x3ce5acb9	0.028036462
146	0x3c27f7f5	0.010251989
147	0x3dceb04f	0.10092222
148	0xbd0ab2d0	-0.033861935
149	0x3c20919e	0.009800343
150	0xbdb8fc8b	-0.09032544
151	0x3c1fbedd	0.009750095
152	0x3caa5542	0.020792607
153	0xbe44a923	-0.19205146
154	0xbacdbfc3	-0.0015697408
155	0x397f95c2	0.00024374484
156	0x3d97bef1	0.07409466
157	0x3e27d4bc	0.16389745
158	0x3df918fc	0.121629685
159	0xbe095463	-0.13411097
160	0x3d7b10b9	0.061295245
161	0xbc9f6cb9	-0.019461023
162	0xbe3d40b1	-0.18481709
163	0x3d2cd071	0.042190973
164	0x3d939748	0.07206589
165	0xbe0979ad	-0.13425322
166	0xbe511eb2	-0.20421866
167	0x3e1fa267	0.15589295
168	0xbe0aacb1	-0.13542439
169	0x3c1caebe	0.009563146
170	0x3ce88a57	0.028386278
171	0xbd82411c	-0.06360075
172	0xbe8e937a	-0.2784689
173	0x3db36b2e	0.08760677
174	0xbe528ca0	-0.20561457
175	0x3ddbee7a	0.10738845
176	0x3d811b8c	0.06304082
177	0xbde8e446	-0.11371665
178	0x3d130d23	0.0359012
179	0x3d96325d	0.07333825
180	0xbe5f1232	-0.21784285
181	0x3e0e9107	0.13922511
182	0xbd9fda80	-0.078053474
183	0xbd6d9d2f	-0.05801123
184	0xbdea9d5c	-0.11455795
185	0x3deab731	0.11460722
186	0xbe19f8b0	-0.15036273
187	0xbcb25589	-0.021769302
188	0x3d921e75	0.071347155
189	0xbd562997	-0.052285757
190	0xbe1517ac	-0.14559811
191	0xbdf2d1fd	-0.11856458
192	0xbdc5b9d8	-0.096545875
193	0xbe6184f2	-0.22023371
194	0xbe34d228	-0.17658293
195	0xbdf59e76	-0.11993115
196	0xbd55849a	-0.05212841
197	0xbd7b26ec	-0.061316416
198	0xbe5a9052	-0.21344116
199	0xbe07e86e	-0.13272259
200	0xbe08187d	-0.13290592
201	0xbe6fa1c9	-0.2340156
202	0xbe5003dc	-0.20313972
203	0xbdf86e73	-0.121304415
204	0xbe166f3d	-0.14690872
205	0xbe9ed19b	-0.3101929
206	0xbe09ff65	-0.13476332
207	0xbd77f019	-0.06053171
208	0xbd1d9b90	-0.038478434
209	0x3d5d606e	0.05404704
210	0xbd95727a	-0.07297225
211	0xbd24b48a	-0.040211238
212	0xbe5264e1	-0.20546295
213	0x3dcd5dda	0.100276664
214	0xbce08d86	-0.027411234
215	0xbe56a521	-0.20961429

b0 f4 [8]
0	0x3ceb21c8	0.028702632
1	0x3d9f2fa1	0.07772756
2	0x3cf44d89	0.029822128
3	0x3d0de283	0.034639847
4	0x3cd25809	0.025676744
5	0x3ce5a19e	0.028031167
6	0x3d5b1ea3	0.053496014
7	0x3d30bdef	0.043149885

W1 f4 [16, 8, 3, 3]
0	0x3c8a4e50	0.016883045
1	0xbd283e99	-0.041075323
2	0x3de316ce	0.11088334
3	0xbd8202b6	-0.06348173
4	0x3e44e1e4	0.19226795
5	0x3e1e1f9b	0.15441744
6	0xbb3f5cfc	-0.002919971
7	0xbda0298d	-0.07820425
8	0x3dcc5497	0.09977072
9	0x3e1afbfe	0.1513519
10	0xbdb9b24c	-0.090672106
11	0xbd4c9fd4	-0.04995711
12	0x3def3d70	0.1168164
13	0x3d67109d	0.056412328
14	0xbdd64851	-0.10463012
15	0x3c77775f	0.015104144
16	0x38d6e04e	0.00010246095
17	0x3e51721c	0.20453686
18	0xbda4f5f2	-0.08054723
19	0x3e4cca87	0.19999133
20	0x3d8d2c80	0.06893253
21	0xbd0e0597	-0.0346733
22	0x3db7d756	0.08976619
23	0x3d5533bb	0.052051287
24	0xbd444c9d	-0.047924627
25	0xbd29c5da	-0.04144845
26	0x3e07c332	0.13258055
27	0x3cab1499	0.020883845
28	0x3e05c9f0	0.13065314
29	0x3d98b5c1	0.07456542
30	0x3e895c76	0.26828355
31	0x3d8f5571	0.069987185
32	0xbcce91bf	-0.025215982
33	0xbbdafa0c	-0.00668264
34	0x3ebc2c96	0.36752766
35	0x3d0985ed	0.033574987
36	0xbc3ec08b	-0.0116425855
37	0x3d71b36d	0.059009004
38	0x3e8bb7ef	0.27288768
39	0x3e6580a4	0.22412354
40	0x3bb53ba0	0.0055307895
41	0x3d45e3b5	0.04831286
42	0x3d179865	0.03701057
43	0x3d0ea3a0	0.034824014
44	0x3e9e89c5	0.30964485
45	0xbd17733a	-0.036975123
46	0xbbdc0fa6	-0.0067157326
47	0x3d956d5a	0.07296248
48	0xbe20230b	-0.15638368
49	0xbdbb20e3	-0.09137132
50	0x3e749f8d	0.23888989
51	0x3d0501a6	0.032472275
52	0xbe2b7fbf	-0.1674795
53	0x3ea108f5	0.31452146
54	0x3d94489c	0.07240412
55	0xbe16b28c	-0.14716548
56	0xbc5e4263	-0.0135656325
57	0xbd4d4fa0	-0.050124764
58	0x3e275cd9	0.16344012
59	0x3d8bf397	0.068335705
60	0xbdd13403	-0.102149986
61	0x3dd130a7	0.10214358
62	0x3dece6d9	0.11567468
63	0x3d6b5459	0.057453487
64	0x3e84db14	0.25948393
65	0xbda74b1d	-0.081686236
66	0xbc226dba	-0.009913856
67	0x3d369597	0.044576254
68	0x3d97093a	0.07374807
69	0xbdd52303	-0.104070686
70	0xbe164ff2	-0.14678934
71	0x3d893fe8	0.06701642
72	0xbce1b054	-0.0275499
73	0x3da601c5	0.08105806
74	0xbe12c3be	-0.14332482
75	0xbda4fdb2	-0.08056201
76	0x3e08212c	0.13293904
77	0xbe35ddf3	-0.17760448
78	0x3ce77d2f	0.028257934
79	0x3ca45694	0.020060815
80	0xbd8e922b	-0.06961473
81	0x3d691b55	0.05691083
82	0x3a186610	0.00058135483
83	0x3d23dfed	0.040008474
84	0x3e03ba1d	0.12863965
85	0x3d185a40	0.037195444
86	0xbda759ea	-0.081714466
87	0x3db6eda7	0.08932047
88	0x3c8c8b7c	0.017156355
89	0x3cd90af7	0.026494486
90	0xbd1d4f8c	-0.03840594
91	0xbd3d1e10	-0.046171248
92	0x3d6b3842	0.0574267
93	0x3c315046	0.010822361
94	0x3e6023a8	0.21888602
95	0xbd47b956	-0.048760734
96	0xbd962c26	-0.073326394
97	0x3dbfe526	0.093698785
98	0xbca5d80d	-0.020244623
99	0x3cea4916	0.028599303
100	0x3d405770	0.046958387
101	0xbd9dab69	-0.076987095
102	0x3db3f7cb	0.08787497
103	0xbd63084c	-0.055427834
104	0xbd939608	-0.072063506
105	0x3db77cff	0.08959388
106	0x3e1017fc	0.1407165
107	0xbd6cfebe	-0.05786013
108	0xbdc65ec7	-0.09686046
109	0xbdecb0d8	-0.11557168
110	0xbe3eaa93	-0.18619756
111	0xbd66cd79	-0.056348298
112	0xbdaa9c13	-0.0833055
113	0xbd0c1ec1	-0.034209017
114	0x3e05d3d7	0.13069092
115	0xbe0e3f46	-0.13891324
116	0x3d67e614	0.056615904
117	0xbe2c7389	-0.16840948
118	0x3b279c39	0.0025575294
119	0x3ca2ffcb	0.019897362
120	0x3d436b4d	0.047709752
121	0xbd7d66bc	-0.061865553
122	0x3d3acce8	0.04560557
123	0x3e247387	0.16059695
124	0x3c85990e	0.016308334
125	0x3cd87082	0.026420835
126	0x3dcfed0e	0.101526365
127	0xbcd697de	-0.026195463
128	0x3da7e6e9	0.081983395
129	0x3ddfc987	0.1092711
130	0xbd757aeb	-0.059931677
131	0x3e42caf1	0.19022729
132	0xbe1311ed	-0.14362307
133	0x3e08f6fb	0.13375466
134	0x3d9b4713	0.07581916
135	0xbcc03756	-0.023463886
136	0x3e287a00	0.1645279
137	0x3deecba2	0.116599336
138	0xbd181450	-0.037128747
139	0x3e582fc8	0.21111977
140	0xbd689cf5	-0.05679031
141	0x3e4d6499	0.20057906
142	0x3e9ef474	0.31045878
143	0x3e1711cf	0.14752887
144	0x3defbad8	0.117055595
145	0xbdb9ea77	-0.09077924
146	0xbd5b2c2b	-0.05350892
147	0xbb47b2fe	-0.0030471678
148	0xbd719211	-0.05897719
149	0x3dfcb254	0.12338701
150	0x3cfa7187	0.030571712
151	0xbe279654	-0.1636594
152	0xbd94146a	-0.07230456
153	0x3cee1b10	0.029065639
154	0xbd375223	-0.044756066
155	0x3d417899	0.04723415
156	0x3d9fa3b3	0.07794895
157	0x3d074249	0.0330222
158	0x3d1275c2	0.035756834
159	0xbd85fe7b	-0.06542679
160	0xbd9ad3c0	-0.07559919
161	0x3d8e21fc	0.06940076
162	0xbe3b3f75	-0.18285926
163	0x3e7aeae3	0.24503665
164	0x3b16995b	0.002297959
165	0x3c905147	0.017616881
166	0x3dc9627b	0.09833237
167	0x3d597702	0.05309201
168	0x3d5d168e	0.053976588
169	0xbd752cae	-0.059857063
170	0xbe2e745b	-0.17036574
171	0x3e61deed	0.22057696
172	0x3d108c5d	0.03529011
173	0x3e302132	0.17200163
174	0x3e266c6f	0.16252302
175	0xbdc9e6ba	-0.09858461
176	0x3eb06d0b	0.34458193
177	0xbcf4a67e	-0.029864546
178	0xbd173e4d	-0.03692465
179	0x3e09bf8d	0.13451977
180	0x3d3dd4a0	0.046345353
181	0x3d78dd9e	0.060758226
182	0x3e3dd5e0	0.18538618
183	0xbd93cf57	-0.07217281
184	0x3d023c80	0.03179598
185	0x3d7e78d9	0.062126968
186	0xbd0a2c72	-0.033733793
187	0x3cdf3829	0.027248459
188	0x3c3dd578	0.011586539
189	0xba6c3f3a	-0.0009012107
190	0xbcac996f	-0.021069257
191	0x3dc879f3	0.09788885
192	0x3dcf4782	0.10121061
193	0xbdb25b2f	-0.08708798
194	0x3db4301e	0.0879824
195	0xbd4d6ca0	-0.05015242
196	0xbd309631	-0.043111984
197	0x3d4fe46c	0.05075495
198	0x3e09b2d7	0.13447128
199	0x3e0680bb	0.13135044
200	0x3dd60575	0.104502596
201	0x3e65d025	0.22442682
202	0xbbfd53c6	-0.007730934
203	0x3e088349	0.13331331
204	0x3da9105d	0.08255074
205	0x3d3fd821	0.046836976
206	0xbe0825f0	-0.13295722
207	0xbd82cd23	-0.06386783
208	0x3d30633b	0.043063384
209	0x3e1b132b	0.15144031
210	0xbd637309	-0.055529628
211	0x3d7ef470	0.062244833
212	0xbd049f3d	-0.032378424
213	0xbe3e4d33	-0.18584137
214	0xbe6ff55e	-0.23433444
215	0xbd6a157b	-0.05714939
216	0x3dc15e31	0.09441794
217	0x3cebebef	0.028799025
218	0xba262501	-0.00063379115
219	0xbc4cd6c5	-0.012502377
220	0x3c91f3e6	0.017816495
221	0xbcb5571d	-0.022136265
222	0xbd01074d	-0.031501103
223	0x3d500503	0.05078603
224	0x3e1492b4	0.14509088
225	0x3cedb98b	0.029019138
226	0x3e217d76	0.15770516
227	0x3d746f9f	0.059676763
228	0xbd54f3e9	-0.051990423
229	0x3dcdfb25	0.10057668
230	0xbe5dc6f4	-0.21657926
231	0xbe5cde24	-0.21569115
232	0xbe00bc7b	-0.125719
233	0xbde05740	-0.109541416
234	0xbd767091	-0.060165945
235	0xbe0e5ea7	-0.13903295
236	0xbe4c5ca9	-0.19957222
237	0x3e42e67e	0.19033238
238	0x3e19b3e5	0.1501003
239	0x3d73ff76	0.0595698
240	0x3e11854c	0.14211005
241	0x3e603116	0.21893725
242	0x3d123b60	0.035701156
243	0x3e2d0f3c	0.16900343
244	0xbc5ccb50	-0.013476208
245	0x3db1137b	0.08646294
246	0x3df954c9	0.121743746
247	0x3e222868	0.15835726
248	0xbddcc578	-0.10779852
249	0xbd7946f5	-0.060858686
250	0xbbff9d8e	-0.0078007644
251	0xbe033c6c	-0.12816018
252	0xbdcf9df9	-0.10137553
253	0xbca21485	-0.019785175
254	0xbe5e3013	-0.21698026
255	0x3d2b9fb3	0.041900348

b1 f4 [16]
0	0x3c73eb8e	0.014887704
1	0x3c930b8f	0.017949848
2	0x3ca07517	0.019587083
3	0x3cd37bff	0.025815962
4	0x3cb8041a	0.022462893
5	0x3b82a8bb	0.0039873994
6	0x3d37b606	0.044851325
7	0xba7645c6	-0.00093945523
8	0xbbc0e786	-0.0058869747
9	0x3cda7b36	0.02667008
10	0xbc1a5a41	-0.009420932
11	0x3ccc5f49	0.02494778
12	0x3ba768fe	0.0051089516
13	0x3d2f13a0	0.042743325
14	0x3c81f6d3	0.015864765
15	0xbc3b7a64	-0.011442754

W2 f4 [32, 16, 3, 3]
0	0x3e76e9d0	0.2411263
1	0xbdc46803	-0.09590151
2	0xbd81ff28	-0.06347495
3	0x3cfb3455	0.030664602
4	0x3c3badaf	0.011454984
5	0xbd2d120c	-0.04225354
6	0x3e136a59	0.14396037
7	0x3dd1a35a	0.10236235
8	0xbd9ae18a	-0.075625494
9	0xbb3beb51	-0.0028674195
10	0x3dde9ce1	0.10869766
11	0xbc8af501	-0.01696253
12	0xbcc6564d	-0.024211073
13	0x3ce408dc	0.027836256
14	0x3e68b1c4	0.22724062
15	0xbe1588a3	-0.14602904
16	0xbbf1e504	-0.007382037
17	0x3d20b151	0.039231602
18	0xbe16aee1	-0.14715149
19	0x3d03b852	0.032158203
20	0x3da1dade	0.07903074
21	0xbcc070c7	-0.023491276
22	0xbe1524be	-0.14564797
23	0x3dbeed4f	0.09322607
24	0x3e493208	0.19647992
25	0xbd848687	-0.064709716
26	0x3dca39f3	0.09874334
27	0xbd940c04	-0.07228854
28	0x3dc0a9c1	0.09407378
29	0xbd924651	-0.07142318
30	0xbdc617a0	-0.09672475
31	0x3e7a477a	0.24441329
32	0x3e487c35	0.19578631
33	0x3ca80268	0.02050896
34	0x3d4b8f12	0.04969699
35	0x3e778e70	0.2417543
36	0x3d17b5f2	0.03703875
37	0xbcea9b25	-0.028638432
38	0xbd1b04f6	-0.037846528
39	0xbbab4e68	-0.0052278526
40	0x3ce2e8ea	0.027698953
41	0x3e3ea052	0.18615845
42	0x3da7b32e	0.08188473
43	0x3d919a38	0.07109493
44	0x3e8f42c9	0.2798064
45	0xbc8ba59b	-0.01704674
46	0x3db153fa	0.086585954
47	0xbc72069e	-0.0147720855
48	0x3cc64be1	0.024206104
49	0x3e0337d7	0.1281427
50	0x3e09ab30	0.13444209
51	0x3ce962ca	0.02848949
52	0xbe0d6d74	-0.13811284
53	0x3e1cb1a6	0.15302143
54	0x3d247b8e	0.040156893
55	0x3db2ccd5	0.08730475
56	0x3e264821	0.16238452
57	0xbd914fb4	-0.0709528
58	0x3db4e16e	0.0883206
59	0xbcdbf67b	-0.02685093
60	0x3e087a6c	0.1332795
61	0x3e3a26ba	0.18178836
62	0x3c6654c2	0.014058294
63	0x3db90063	0.09033277
64	0xbdfe84d4	-0.12427679
65	0xbdc03cbb	-0.093865834
66	0xbec93e6c	-0.39305437
67	0x3ddf3600	0.108989716
68	0x3cf47c52	0.029844437
69	0xbdacb92a	-0.08433755
70	0x3d92be95	0.07165257
71	0xbd362200	-0.04446602
72	0xbd7a4c94	-0.061108187
73	0x3d91a907	0.071123175
74	0xbe6ffd20	-0.23436403
75	0xbc25e049	-0.0101242745
76	0x3ddddf62	0.108336225
77	0x3dc6cd8f	0.09707176
78	0xbdd2e8ce	-0.1029831
79	0xbc8272ee	-0.015923943
80	0x3e721d63	0.23644023
81	0xbdb3715b	-0.08761855
82	0x3d423e75	0.047422845
83	0x3e3cf7df	0.1845393
84	0xbe08682c	-0.13320988
85	0x3b0c2404	0.0021383772
86	0x3dd53ccb	0.10411986
87	0xbe745c68	-0.23863375
88	0x3d0d2a0d	0.03446393
89	0xbe7b0779	-0.2451457
90	0x3e438fe4	0.19097859
91	0xbe1f365b	-0.15548079
92	0xbd713446	-0.058887742
93	0xbdbf3f38	-0.0933823
94	0xbd168f29	-0.036757622
95	0xbdc347dd	-0.09535191
96	0x3d8b5afe	0.06804465
97	0x3e4a9f4d	0.19787331
98	0xbe217a81	-0.15769388
99	0xbe4812c9	-0.19538416
100	0x3c92fb10	0.017941982
101	0x3d67c5a6	0.056584977
102	0x3d9c5ee6	0.07635288
103	0x3d75bfa3	0.059997212
104	0x3de8f3c9	0.11374623
105	0xbde34af5	-0.11098281
106	0x3cb74950	0.022373825
107	0xbe3b88a2	-0.1831384
108	0x3d2c70d4	0.04209979
109	0xbc93a749	-0.018024104
110	0xbb1d5bbc	-0.0024010977
111	0x3d086446	0.033298753
112	0xbb9f0daf	-0.004853926
113	0x3dd1110a	0.10208328
114	0x3d0a6079	0.03378341
115	0x3e6d937a	0.23200789
116	0x3dbde6ea	0.09272559
117	0xbd335208	-0.043779403
118	0x3c2040a9	0.009781041
119	0xbd177c75	-0.036983926
120	0xbdaae21a	-0.08343907
121	0x3b49c111	0.0030785243
122	0x3e763849	0.24044909
123	0x3e123b68	0.14280474
124	0x3e6ffef4	0.234371
125	0x3d319d61	0.04336298
126	0x3df2864c	0.11842021
127	0xbd04f19d	-0.032456983
128	0x3dc513aa	0.09622891
129	0x3db1e54f	0.08686315
130	0x3d856590	0.06513512
131	0x3e32be03	0.17455296
132	0x3e846f81	0.2586632
133	0xbca24a99	-0.019810962
134	0x3dacc66b	0.08436283
135	0xbe688ebc	-0.22710699
136	0xbe0940d2	-0.13403633
137	0x3e037f0b	0.12841432
138	0x3ddf674c	0.10908374
139	0xbdb51e35	-0.08843652
140	0xbe0e9375	-0.13923438
141	0x3d9c3dff	0.07629012
142	0x3e1e1d4b	0.15440862
143	0x3df301bc	0.11865565
144	0x3d178dcf	0.037000474
145	0x3e071481	0.13191415
146	0xbe960e1a	-0.29307634
147	0xbc7ba75f	-0.015359729
148	0x3e31dbbe	0.17368981
149	0x3dbd5f3f	0.092466824
150	0x3c69a819	0.014261269
151	0x3e565617	0.20931278
152	0xbd5c838e	-0.053836398
153	0xbd42ef5f	-0.047591563
154	0x3cf9c5e4	0.03048987
155	0xbd49ec55	-0.04929765
156	0x3e3aea56	0.18253455
157	0xbc2c8bd3	-0.010531384
158	0x3e591622	0.21199849
159	0xbe12da98	-0.143412
160	0xbc33a63c	-0.010964926
161	0xbd68459f	-0.05670702
162	0xbcac9479	-0.021066891
163	0x3e18f6b0	0.14937854
164	0xbd970717	-0.07374399
165	0x3e8c86ab	0.27446494
166	0x3da0ec33	0.078575514
167	0x3e373d0e	0.17894384
168	0x3c2b375e	0.010450212
169	0x3e30b279	0.17255582
170	0x3e25919d	0.16168828
171	0x3e3c3e96	0.1838325
172	0x3cf3742d	0.029718483
173	0xbc3af8d1	-0.0114118615
174	0xbdfccac5	-0.12343363
175	0xbdf46c83	-0.119347595
176	0xbcfad500	-0.030619144
177	0x3e236adf	0.15958737
178	0xbe0e3383	-0.13886838
179	0xbe06015c	-0.13086456
180	0x3c33a3d8	0.010964356
181	0xbdb173b1	-0.086646445
182	0xbe202411	-0.15638758
183	0x3d975708	0.07389647
184	0xbdfc535f	-0.12320589
185	0xbe128986	-0.14310274
186	0xbd8ab8cb	-0.06773528
187	0xbb193344	-0.0023376504
188	0xbd667ff7	-0.05627438
189	0x3ca8c2a8	0.020600632
190	0xbd97636b	-0.07392009
191	0xbcb7caff	-0.022435663
192	0xbe87c8fa	-0.2652052
193	0x3dde34a3	0.108498834
194	0x3d2c4689	0.042059455
195	0xbceaea20	-0.028676093
196	0x3d9bb5b5	0.07603017
197	0x3e6c9f61	0.23107673
198	0x3c48b7e7	0.012250877
199	0xbd982c03	-0.074302696
200	0xbd28edcd	-0.04124241
201	0x3e2a4e55	0.16631444
202	0xbd5e5879	-0.054283593
203	0xbe10e584	-0.14150053
204	0x3da70d2e	0.08156811
205	0xbd207a42	-0.039179094
206	0x3d28f89f	0.04125273
207	0x3db00556	0.08594768
208	0x3c8c46c9	0.017123597
209	0x3d90911a	0.07058926
210	0xbd907f50	-0.07055533
211	0x3d829d01	0.06377602
212	0xbb04a609	-0.0020240566
213	0xbd94a64c	-0.07258281
214	0xbd506ce8	-0.05088511
215	0x3e00c717	0.12575947
216	0x3d347be1	0.044063453
217	0xbdad2e76	-0.08456127
218	0x3de60a46	0.11232428
219	0x3cf11416	0.029428523
220	0xbdbdf459	-0.09275121
221	0x3dcf0b42	0.10109569
222	0xbc080a3e	-0.008303223
223	0x3b15f9eb	0.0022884558
224	0x3dcf33f3	0.101173304
225	0xbdf1ff68	-0.11816293
226	0x3ca2556c	0.019816123
227	0x3b0a65f3	0.0021117895
228	0x3e96c917	0.29450294
229	0x3de86dd1	0.11349071
230	0x3df9e1f6	0.12201302
231	0x3d63c403	0.055606853
232	0x3d730f2e	0.05934065
233	0xbd9c7a97	-0.0764057
234	0x3d8faa79	0.07014937
235	0x3c59a17b	0.013283129
236	0x3cdfe8f6	0.027332764
237	0xbd47563f	-0.048666235
238	0xbcb9d40d	-0.022684122
239	0x3e1c7248	0.1527797
240	0x3dbe6db1	0.09298266
241	0x3e66145a	0.22468701
242	0xbda57d59	-0.08080549
243	0xbb4463ca	-0.0029966705
244	0x3a9aaf95	0.0011801595
245	0xbdc4131b	-0.095739566
246	0x3c735e55	0.0148540335
247	0x3e02159c	0.12703556
248	0x3d8b3fa3	0.06799247
249	0xbcc7990a	-0.024364967
250	0x3c1f9b1f	0.009741574
251	0xbde8f53d	-0.113749005
252	0xbc306d47	-0.010768241
253	0x3d0d206e	0.034454755
254	0x3c96193f	0.018322585
255	0x3de159e2	0.11003472

b2 f4 [32]
0	0xbc19982f	-0.009374662
1	0xbc9d8fca	-0.019233603
2	0x3bf1f162	0.0073835114
3	0x3b131fbe	0.002244934
4	0x3a9b6157	0.0011854571
5	0x3c858175	0.016297081
6	0xbb8a3387	-0.0042175683
7	0x3cb4a992	0.022053514
8	0xbafdb557	-0.0019356412
9	0x3d128ed5	0.035780746
10	0xba3df348	-0.00072460296
11	0x3d4e9761	0.050437335
12	0xbb8ef3b7	-0.004362549
13	0x3ca76426	0.020433497
14	0x3b0fe422	0.0021956046
15	0x3bd86913	0.0066043227
16	0xbd11079a	-0.03540764
17	0xbbcf03b4	-0.00631758
18	0xbc8d6d73	-0.017264104
19	0x3b680d94	0.0035408484
20	0xb9b22db3	-0.00033984854
21	0xbca6a182	-0.020340685
22	0x3caa2abc	0.02077233
23	0x3c7cce2c	0.015430015
24	0x3d1541ee	0.03643983
25	0xbcabdcc8	-0.0209793
26	0x3c6358ba	0.0138761345
27	0x3cdf40b1	0.027252527
28	0x3bfe5755	0.0077618756
29	0xbc1a2a91	-0.009409563
30	0x3d5c56fe	0.0537939
31	0x3bd57384	0.0065140147

W3 f4 [64, 32, 3, 3]
0	0x3d597c35	0.05309697
1	0xbe052438	-0.13002098
2	0xbdb34dee	-0.08755098
3	0x3d34bb1b	0.04412375
4	0xbd94af18	-0.07259959
5	0x3df6b261	0.12045742
6	0xbd359476	-0.044331037
7	0x3d8ba476	0.06818478
8	0x3cc44c06	0.023962032
9	0xbcda89e7	-0.026677085
10	0xbe05d544	-0.13069636
11	0x3d4159b4	0.04720469
12	0xbd24709b	-0.04014645
13	0x3dc9ef39	0.09860081
14	0xbd7043d6	-0.058658443
15	0x3d94fb51	0.07274497
16	0x3e09396d	0.13400812
17	0x3e1c6e7d	0.15276523
18	0xbbff58c6	-0.007792565
19	0xbdb7bbf5	-0.08971397
20	0x3dbc9cca	0.09209593
21	0x3d5c5a5d	0.053797115
22	0x3e005b63	0.12534861
23	0xbb843075	-0.004034097
24	0xbe4a582c	-0.19760197
25	0x3d2f4766	0.0427927
26	0xbe36ffc0	-0.17870998
27	0x3d5fc3de	0.054630153
28	0x3e17e0af	0.14831804
29	0x3daf71d1	0.08566631
30	0xbdf2a28f	-0.11847412
31	0x3de8f079	0.113739915
32	0xbc74e5a8	-0.014947332
33	0x3d41aced	0.047284056
34	0x3e7e0423	0.24806266
35	0xbdd9d7ef	-0.10636889
36	0xbd00cf31	-0.031447593
37	0xbe81ac64	-0.25326836
38	0xbd834b2b	-0.064108215
39	0x3c6bab87	0.014384157
40	0x38793950	5.9419603e-05
41	0x3deab032	0.11459388
42	0xbd770d67	-0.060315516
43	0xbdeb8738	-0.115004
44	0xbddc6742	-0.10761882
45	0x3c9d1de0	0.019179285
46	0xbe20b3e2	-0.1569362
47	0xbe022cb5	-0.12712367
48	0x3de8a42c	0.11359438
49	0x3e0ca991	0.1373656
50	0x3ddc83b2	0.107673064
51	0x3dde37f8	0.10850519
52	0x3e65d655	0.22445042
53	0xbeb45f42	-0.35228926
54	0x3ca9e295	0.020737926
55	0xbcb1cdf8	-0.021704659
56	0xbda2ab2b	-0.07942804
57	0xbe18c6d6	-0.149196
58	0xbd031726	-0.032004498
59	0x3eb1ef6c	0.34752977
60	0x3d3af9b4	0.04564829
61	0x3df437c3	0.11924698
62	0xbd6c2cd8	-0.057659954
63	0x3e0826d9	0.13296069
64	0x3e5c46c2	0.21511367
65	0x3d9e15d6	0.077190086
66	0xbd09dad2	-0.03365595
67	0xbe270f62	-0.16314462
68	0x3cc57eac	0.024108253
69	0x3cf88d9f	0.030340968
70	0xbdbc7cdf	-0.09203505
71	0xbbae9c35	-0.00532868
72	0x3d0d4c76	0.034496747
73	0xbd928d86	-0.071559
74	0xbcfdc09e	-0.030975636
75	0x3d1557b2	0.036460586
76	0x3dc9fc71	0.098626025
77	0x3e2168d8	0.15762651
78	0x3d593d29	0.053036842
79	0x3e78c401	0.2429352
80	0x3e0d6698	0.13808668
81	0x3e3c86b7	0.18410765
82	0x3e1ba808	0.15200818
83	0x3d97f5d3	0.07419934
84	0x3d66ad4e	0.05631762
85	0x3dd8b95f	0.10582232
86	0x3d064ee3	0.032790076
87	0x3dbbd137	0.09170764
88	0x3d7dec79	0.061993096
89	0x3d90192c	0.07036051
90	0xbd9597d0	-0.073043466
91	0x3d19f923	0.03759111
92	0xbc5d44df	-0.01350519
93	0x3da9ca92	0.0829059
94	0x3e0dc844	0.13845927
95	0x3e20a888	0.1568929
96	0xbe0dc3b7	-0.1384419
97	0x3e2b6f2b	0.16741626
98	0xbabad078	-0.0014252802
99	0x3bc7a4f4	0.006092662
100	0x3db73c69	0.08947069
101	0xbe06de8c	-0.13170832
102	0x3e534a7a	0.2063388
103	0x3e1b7528	0.1518141
104	0xbd9f633e	-0.07782601
105	0x3e619c45	0.22032268
106	0x3cb9bc32	0.022672746
107	0x3c8c1247	0.017098559
108	0x3d61fb80	0.05517149
109	0x3e39b5af	0.18135713
110	0x3d80f99d	0.0629761
111	0x3e0c6633	0.13710861
112	0x3e298a9d	0.16556783
113	0x3d382cf0	0.04496473
114	0x3b24bab0	0.0025135688
115	0x3d95fa40	0.07323122
116	0x3e51983d	0.2046823
117	0x3e6b77fc	0.22994989
118	0x3dbc9604	0.09208301
119	0x3e12f986	0.14352998
120	0xbd786340	-0.060641527
121	0xbdac9d9f	-0.08428501
122	0x3d6645cd	0.05621891
123	0x3dd2aa66	0.10286407
124	0x3c10fa54	0.008848745
125	0x3e334fdf	0.17510937
126	0x3d43aaea	0.04777042
127	0xbda9f80f	-0.082992665
128	0xbd835b98	-0.064139545
129	0x3d92ada2	0.07162024
130	0x3dd1e81a	0.10249348
131	0xbc8a82dd	-0.016908104
132	0x3c14ded2	0.009086328
133	0x3c78b09d	0.015178827
134	0xbdee892c	-0.11647257
135	0x3e1479f0	0.1449964
136	0x3dc198b2	0.094529524
137	0x3daeadf3	0.08529272
138	0x3e42e2ad	0.19031782
139	0xbd08d26a	-0.03340379
140	0xbddf1336	-0.10892336
141	0x3e2ac1f7	0.16675554
142	0xbd1079a4	-0.035272256
143	0x3e538695	0.20656808
144	0x3e781533	0.24226837
145	0xbe4983a3	-0.19679122
146	0xbd8e0b31	-0.06935728
147	0xbe2a81f0	-0.1665113
148	0x3e2ed6e6	0.17074165
149	0x3a91f846	0.0011136613
150	0xbd8f8798	-0.07008284
151	0x3dca7511	0.0988561
152	0xbe5c5b52	-0.21519211
153	0x3e95181b	0.29119954
154	0x3e31fb32	0.1738098
155	0xbdaf60ce	-0.08563386
156	0x3e6290ea	0.22125593
157	0xbdbcf389	-0.09226138
158	0x3df83081	0.121186264
159	0xbd7ac6ac	-0.061224625
160	0xbdaaabbb	-0.08333536
161	0x3e446621	0.19179584
162	0xbda5246f	-0.0806359
163	0x3d686509	0.05673698
164	0xbdc9a86b	-0.09846576
165	0xbca4dfe3	-0.020126289
166	0xbc65afa2	-0.014018925
167	0x3dc2105b	0.09475776
168	0xbd6e42c6	-0.05816915
169	0x3d36b475	0.04460569
170	0x3d1d6d08	0.03843406
171	0xbca5e50d	-0.020250821
172	0x3d55af54	0.05216916
173	0xbc1e651e	-0.009667663
174	0x3db5cec3	0.08877327
175	0xbdb84478	-0.089974344
176	0xbcb533e9	-0.02211948
177	0xbdf63038	-0.12020916
178	0x3d383d8e	0.044980578
179	0x3bb4b5d4	0.0055148397
180	0xbcd4ed92	-0.025992189
181	0x3ce0d8f6	0.027447205
182	0xbd470909	-0.0485926
183	0x3d888b8f	0.06667244
184	0xbda224f0	-0.079172015
185	0xbe3fcbf4	-0.18730146
186	0x3cdf618d	0.027268196
187	0x3d0e0767	0.03467503
188	0x3e66f72a	0.22555223
189	0xbe0d1114	-0.13776046
190	0xbe0ea359	-0.139295
191	0xbe26261a	-0.16225472
192	0xbd31d4e7	-0.04341593
193	0xbd8cf83c	-0.068832844
194	0xbd1bb474	-0.03801389
195	0x3d700a1c	0.05860339
196	0x3d22f335	0.03978272
197	0x3c3c6ea9	0.011500993
198	0x3de305e6	0.110851094
199	0xbd5851ed	-0.052812506
200	0xbd28db43	-0.04122473
201	0xbdda3c25	-0.10656003
202	0xbdc15f55	-0.09442011
203	0xbe460c94	-0.19340736
204	0x3e1b0e7f	0.15142249
205	0x3d2a51bc	0.041581854
206	0x3dbf5cf3	0.093439005
207	0x3b8a651f	0.0042234804
208	0x3e3d722b	0.18500583
209	0xbcdc7a7a	-0.02691387
210	0xbe7b1868	-0.24521029
211	0xbd86f405	-0.06589512
212	0xbd8ec1b7	-0.06970542
213	0x3dba888b	0.09108075
214	0x3de1a0c5	0.110169925
215	0x3d6242aa	0.055239357
216	0xbe19920e	-0.14997122
217	0xbdc4522e	-0.09585987
218	0xbd9ef67f	-0.07761859
219	0xbce9fba8	-0.028562382
220	0x3e3e6b18	0.1859554
221	0xbc808ffc	-0.015693657
222	0x3da4bb25	0.080435075
223	0x3c46c6ca	0.012132356
224	0x3c055cc4	0.008139793
225	0xbda38915	-0.07985131
226	0xbd8c5c72	-0.0685357
227	0xbd19759b	-0.037465673
228	0x3de764a3	0.11298492
229	0xbe21c8c0	-0.15799236
230	0x3c41c9b1	0.011827872
231	0x3d1a2c93	0.037640166
232	0x3c2e8cad	0.010653657
233	0xbcced339	-0.025247203
234	0x3d48922f	0.048967537
235	0xbdad2bfd	-0.08455656
236	0x3e05efd6	0.13079771
237	0xbe5930fe	-0.21210095
238	0xbcabb35d	-0.02095955
239	0xbb9771f2	-0.0046217376
240	0x3dd8bad9	0.10582513
241	0x3cb03167	0.021507932
242	0x3771d7a0	1.44149235e-05
243	0xbbee09d5	-0.0072643557
244	0xbe501966	-0.20322189
245	0x3c8bf067	0.017082406
246	0xbac84b9d	-0.0015281324
247	0x3cd6cf99	0.026222037
248	0x3d58791e	0.05284988
249	0xbe452261	-0.19251396
250	0xbdf6b6f7	-0.120466165
251	0xbe293e00	-0.16527557
252	0xbdc85f7f	-0.097838394
253	0x3c197420	0.009366065
254	0xbe383d09	-0.17992033
255	0x3bc63b3f	0.006049543

b3 f4 [64]
0	0x3a6792d2	0.00088338286
1	0xba166c77	-0.00057382084
2	0x3c5ef453	0.013608056
3	0x3c37100b	0.011173259
4	0x3c408917	0.011751435
5	0x3c877391	0.016534599
6	0x3c2cb0df	0.010540216
7	0xb99d140b	-0.00029960307
8	0xbac853f5	-0.001528381
9	0xbc8fad79	-0.017538773
10	0xbca413ad	-0.020028913
11	0x3ceff8fb	0.029293528
12	0x3beb9ecd	0.0071905614
13	0xbc862b98	-0.016378209
14	0x3c23af22	0.009990485
15	0x3c27d4db	0.01024362
16	0x3a561c7e	0.0008167698
17	0xbc52d99b	-0.012869264
18	0x3c466830	0.012109801
19	0xbc04ea8b	-0.00811256
20	0xbb944e07	-0.004525903
21	0x3b20eaae	0.0024553942
22	0xbc5b5854	-0.013387758
23	0xbc40b50e	-0.011761917
24	0x3b1f3e09	0.002429845
25	0xbbcc6e80	-0.0062387586
26	0xbb845965	-0.004038977
27	0x3c8ccaf8	0.017186627
28	0xbcc08b71	-0.02350399
29	0x3cdab20e	0.026696231
30	0x3bbc7218	0.0057509057
31	0x3c84c4d5	0.016207138
32	0x3cc4e84e	0.024036553
33	0x3b991f59	0.0046729264
34	0x3c339cd9	0.010962688
35	0xbbaba306	-0.00523794
36	0x3bedeaae	0.007260642
37	0x3c951d71	0.018202515
38	0x3d219f70	0.039458692
39	0x3baefd07	0.005340222
40	0x3cc8f30b	0.024529954
41	0x3bc35edc	0.005962236
42	0xbc087245	-0.008328025
43	0x3cd16daf	0.025564997
44	0x3b8fac70	0.00438457
45	0xbb23f204	-0.0025016079
46	0x3d3720d2	0.044709034
47	0x3cd75dfd	0.026289934
48	0x3d094f8c	0.033523127
49	0x3bd37ad5	0.0064538517
50	0xbc895978	-0.016766295
51	0xbc7d203a	-0.015449578
52	0x3c3a97aa	0.011388699
53	0x3cc27ded	0.023741687
54	0x3c2f5a21	0.010702641
55	0x3c67965f	0.014134972
56	0x3c301d7e	0.010749219
57	0x3c524e09	0.012835988
58	0x3c35d8db	0.011099066
59	0xba286fe5	-0.0006425365
60	0x3b020abc	0.0019842824
61	0xbb2b9b1a	-0.0026184977
62	0xbc5da987	-0.013529188
63	0x3bb64f36	0.005563642

W4 f4 [256, 10]
0	0xbcfa5538	-0.030558214
1	0x3d246d07	0.04014304
2	0x3d8509c3	0.064960025
3	0xbccd9bbe	-0.025098678
4	0xbae0a9fe	-0.0017140505
5	0xbdf8211d	-0.12115691
6	0x3cf9a8f9	0.03047608
7	0x3da8ff8c	0.08251867
8	0xbd87848f	-0.066170804
9	0x3e1e9a13	0.15488462
10	0x3d0e4c36	0.03474065
11	0xbd806c2c	-0.06270632
12	0xbe38b17c	-0.18036455
13	0x3d0a18cc	0.033715054
14	0x3e26e18d	0.16296978
15	0x3da462b5	0.08026639
16	0x3c35312f	0.01105909
17	0x3e3b2f20	0.18279696
18	0x3c0a431e	0.008438854
19	0x3de6988f	0.11259567
20	0x3e8fd484	0.28091824
21	0xbdfd6d29	-0.12374336
22	0xbe1e9de6	-0.15489921
23	0xbe1cb2e8	-0.15302622
24	0x3d9ff892	0.07811083
25	0xbc047093	-0.00808348
26	0xbe21abd0	-0.15788198
27	0xbc66d70e	-0.014089359
28	0xbc858d16	-0.016302627
29	0x3d91bff0	0.07116687
30	0x3b0bdcb0	0.0021341257
31	0xb9ee6889	-0.00045472782
32	0x3e049335	0.1294678
33	0xbd309736	-0.043112956
34	0xbdcb1787	-0.09916597
35	0xbdb5b400	-0.08872223
36	0xbd8083fe	-0.062751755
37	0xbe97c28b	-0.29640612
38	0x3d1d7159	0.038438175
39	0x3db9555f	0.09049486
40	0xbd5ae5da	-0.05344186
41	0x3cdc91bf	0.026924966
42	0x3e06a192	0.13147572
43	0xbe06eed9	-0.1317705
44	0x3cb8a997	0.022541804
45	0x3e14b72c	0.14523
46	0xbda9d857	-0.08293217
47	0x3e16ee33	0.14739303
48	0x3b93e128	0.0045129247
49	0x3e19f67c	0.15035433
50	0xbcf8fa4a	-0.030392785
51	0x3d5a70cf	0.05333024
52	0xbcaef6c6	-0.021357905
53	0x3dea486d	0.11439595
54	0xbda3548a	-0.07975109
55	0xbcf3db4e	-0.029767659
56	0x3db9e8e5	0.09077624
57	0x3e0e6f55	0.13909657
58	0xbe0275ba	-0.12740222
59	0xbdf28ac7	-0.11842876
60	0xbcfbd199	-0.030739592
61	0x3dfdc821	0.12391687
62	0x3e6d7c3e	0.23191926
63	0x3b3ed45e	0.002911828
64	0x3c39e5e5	0.011346315
65	0xbd32a105	-0.04361059
66	0xbe0636bf	-0.13106821
67	0x3da35df1	0.07976902
68	0x3dde2dc7	0.10848575
69	0xbd1fa9d1	-0.03898031
70	0x3cdd056e	0.026980128
71	0xbda8ee51	-0.0824858
72	0x3e76b3b0	0.24091983
73	0xbd739dfe	-0.059476845
74	0x3d18436c	0.037173674
75	0x3d890adb	0.06691524
76	0x3caf31ea	0.021386106
77	0x3dbe66f9	0.09296984
78	0xbe7f26d7	-0.2491716
79	0xbcdc47bc	-0.026889674
80	0xbdf7977f	-0.120894425
81	0xbc97a469	-0.018511014
82	0x3dc9bc7f	0.09850406
83	0x3d57499e	0.05256044
84	0xbd7e4a01	-0.062082294
85	0xbcd9d880	-0.026592493
86	0x3d2ad2c8	0.041704923
87	0x3e14e8be	0.14541909
88	0x3c077aa6	0.008268988
89	0xbe2e7f92	-0.17040852
90	0xbe5030c3	-0.20331101
91	0xbb507581	-0.003180832
92	0xbd9c4961	-0.076311834
93	0x3e7849d3	0.24246912
94	0xbd0dc3a1	-0.034610394
95	0xbd498378	-0.049197644
96	0x3d453247	0.04814365
97	0xbe466e25	-0.19377954
98	0x3cfd02da	0.030885149
99	0xbdde8a06	-0.1086617
100	0x3d06f24d	0.03294592
101	0x3d8a8249	0.06763131
102	0x3dd86d52	0.10567726
103	0x3d0a055a	0.03369651
104	0xbe0f9d9c	-0.14024967
105	0xbd6c757d	-0.057729233
106	0x3c9f691a	0.019459296
107	0x3d8b2a67	0.06795197
108	0xbe0d6ce5	-0.13811071
109	0x3d7a86d0	0.061163723
110	0x3babe20f	0.005245454
111	0xbd8bde4a	-0.06829508
112	0xbc254410	-0.010087028
113	0xbd221389	-0.03956941
114	0x3e5e2041	0.21691991
115	0xbe4f8bb0	-0.2026813
116	0x3e018053	0.12646608
117	0xbd217076	-0.03941389
118	0xbdc81c8f	-0.09771072
119	0xbc311d79	-0.0108102495
120	0x3d64a254	0.05581887
121	0x3d8de106	0.069276854
122	0x3d4a10b9	0.049332354
123	0xbca3be89	-0.019988315
124	0x3d3cafd3	0.046066117
125	0xbd391584	-0.045186535
126	0xbe0858d4	-0.13315135
127	0x3d68e943	0.05686308
128	0xbc523b4a	-0.012831518
129	0x3c9d3a85	0.019192943
130	0xbdd15149	-0.10220582
131	0xbe8e684c	-0.27813947
132	0x3e0b8487	0.13624774
133	0x3d68dd17	0.056851473
134	0x3b4b52e6	0.0031024753
135	0xbd2ca5e4	-0.042150393
136	0x3cbbef77	0.022941334
137	0x3de6238e	0.1123725
138	0xbe713bc7	-0.2355796
139	0x3e738abf	0.23783396
140	0x3daeac8f	0.08529007
141	0xbd6d10b6	-0.057877265
142	0xbd7b83df	-0.06140506
143	0x3c1c532d	0.009541315
144	0x3e586634	0.21132737
145	0x3d810111	0.062990315
146	0x3b34d8d0	0.002759505
147	0xbc31d8b4	-0.010854889
148	0x3d34ade6	0.044111155
149	0x3e0053ff	0.12532042
150	0xbd42c1fb	-0.047548275
151	0x3d7d0abd	0.06177782
152	0xbe645bd4	-0.22300655
153	0x3ce8646d	0.0283682
154	0x3d40dc57	0.047085132
155	0xbd408f77	-0.04701182
156	0x3d74a3c0	0.059726477
157	0xbc98ce96	-0.018653195
158	0xbe44d31e	-0.1922116
159	0xbe0a0c24	-0.13481194
160	0xbd87d161	-0.06631733
161	0xbddd5ffe	-0.10809325
162	0xbd2550bd	-0.0403602
163	0xbdd192e1	-0.10233093
164	0x3e09e1b5	0.13465007
165	0x3e4cc925	0.19998606
166	0x3c421cf3	0.011847722
167	0xbd9600e2	-0.07324387
168	0xbea06f23	-0.3133479
169	0x3e04a85c	0.12954849
170	0xbd9459b4	-0.07243672
171	0x3cb78581	0.022402527
172	0x3d474151	0.048646275
173	0xbd24b355	-0.040210087
174	0xbe382cb4	-0.17985803
175	0xbda2cf84	-0.07949737
176	0xbd1e8ac6	-0.038706563
177	0x3d945092	0.0724193
178	0xbe0306e5	-0.12795599
179	0xbc860699	-0.016360568
180	0xbb33b2c2	-0.002741978
181	0xbd51577e	-0.05110883
182	0xbda5a9df	-0.08089041
183	0x3e2bb6f8	0.16769016
184	0xbdc711d6	-0.09720199
185	0x3e84849d	0.25882426
186	0xbd4fa915	-0.05069836
187	0xbe01c7a8	-0.12673819
188	0xbdafc39c	-0.085822314
189	0x3c6b5dc5	0.014365618
190	0xbc8b468f	-0.017001418
191	0xbea23586	-0.3168146
192	0x3ca968d3	0.020679867
193	0x3dbdcf1c	0.092680186
194	0xbd71d6bb	-0.059042674
195	0x3d9642fe	0.073369965
196	0xbde04beb	-0.1095198
197	0x3d24acac	0.040203735
198	0x3e8006ff	0.25005338
199	0x3d0dde5d	0.03463589
200	0x3d778482	0.060429104
201	0xbd16e8a5	-0.03684296
202	0x3de554d1	0.11197818
203	0xbd056116	-0.03256329
204	0x3d684e9f	0.056715604
205	0x3da9a3c6	0.082831904
206	0x3d705d9a	0.058683015
207	0x3da4c2be	0.080449566
208	0xbd908da4	-0.07058266
209	0xbd90639a	-0.070502475
210	0xbc8cfa85	-0.0172093
211	0xbd13cf88	-0.03608659
212	0x3e09a919	0.13443412
213	0x3d6f0925	0.05835833
214	0xbdd87603	-0.10569384
215	0xbe420604	-0.18947607
216	0xbda77489	-0.08176524
217	0xbd96ce51	-0.073635705
218	0xbdf06230	-0.11737478
219	0xbd9fe957	-0.07808178
220	0xbd176254	-0.036959007
221	0x3c3e3587	0.011609442
222	0x3e4ff81b	0.20309488
223	0xbdda94ed	-0.106729366
224	0x3de3a958	0.11116284
225	0x3d8f4bb9	0.06996865
226	0x3da3f17a	0.080050424
227	0x3d931169	0.07181055
228	0xbe084998	-0.13309324
229	0xbe0a17fe	-0.13485715
230	0xbd17e5fe	-0.037084572
231	0xbdeaa189	-0.11456592
232	0xbe20ad1f	-0.1569104
233	0x3d5c6125	0.05380358
234	0xbddceba5	-0.10787133
235	0xbe90fe75	-0.28319135
236	0x3e273a76	0.16330895
237	0xbd2ae9c3	-0.04172684
238	0x3e2a8a1a	0.16654244
239	0x3e3590cd	0.17731018
240	0x3cf2b7c3	0.02962864
241	0x3da01e3f	0.07818269
242	0xbd1fec7f	-0.0390439
243	0xbdd2c5ff	-0.10291671
244	0x37ee16d5	2.8382443e-05
245	0xbe6e127f	-0.23249243
246	0xbda8298d	-0.0821105
247	0xbdffb932	-0.12486495
248	0xbcc68cf0	-0.024237126
249	0x3dc8c9fd	0.09804151
250	0xbc38c8d8	-0.011278354
251	0x3c619eec	0.0137708
252	0xbe198a5d	-0.14994188
253	0xbdb152e7	-0.086583905
254	0x3d8c6a4c	0.06856212
255	0x3d4321bf	0.047639605

b4 f4 [10]
0	0xbaa27ad1	-0.0012396221
1	0xbc576b34	-0.013148118
2	0x3c4f4c89	0.012652525
3	0x3c5610ac	0.013065498
4	0x3c3f11d9	0.01166197
5	0xbcc0190b	-0.023449441
6	0x3c34f452	0.011044579
7	0xbc4427a4	-0.011972342
8	0xbc8bc0b8	-0.017059669
9	0x39ba8c38	0.00035581156
