2020/A2_solution/softmax_best_model.pt (torch, 246579 bytes, 1 tensors)

W f8 [3073, 10]
0.0004664317998313209 0.005059599665796137 -0.0050007123688051176 -0.0072685101594378385 -0.026366030754909293 -0.009144488863653192 0.011884410441641954 -0.0011725548513255844
0.03281734988579962 -0.0012766085528679249 -0.004248480799823624 0.008319750309511922 0.0028816884935142736 -0.004786971435458816 -0.01358985504212095 -0.01646626112697119
0.012853871126173585 -0.009228280835939661 0.030719584496127064 -0.006456249854494267 -0.007294311082637359 0.011661275152297763 0.009208102767514886 -0.0027061351318602876
-0.004436829238734392 -0.015708530656334298 0.004994617502419634 -0.006424754647102593 0.025431065457896182 -0.014723655828903271 -0.0024648205243002668 0.011389081458399303
0.006741401093284624 -0.004073233007130996 0.00044681418647660724 -0.007098711259438988 -0.0036746882313354458 -0.008457640132661155 0.02504133328902591 -0.017852849348607185
0.0029268743560008138 0.01607731488002833 0.0003862938118872018 -0.005457423413093729 0.006526266571635694 -0.004146226814776464 -0.0066760735452932995 -0.010770397312767676
0.02089928136198855 -0.01976448279633221 0.004304297044114143 0.007814068609182767 0.002048621762710439 0.0007436564722285118 0.0008883556230236952 -0.005318578242092424
-0.0004295656331438515 -0.0030650966604149625 0.017455451978415488 -0.024442686199570855 0.00010756940024977676 0.006228440124226305 0.003024695198342719 0.007543989467599512
0.0004969841864725076 -0.000793882555301294 -0.0024628825583502072 -0.009391330383296315 0.01590859873995259 -0.02066407857457819 -0.005244427476270696 0.006370581649674027
0.004849350235945047 0.017757951136217247 -0.00030104791349912203 -0.003355508822444578 -0.000984598744238123 -0.018413867627396645 0.017932972879628747 -0.018611415953438657
-0.007166322664177254 0.009968343785493154 0.0002718577307514764 0.013640337508831996 0.0021550415873128363 -0.009181509836333524 0.015402416046084274 -0.02354400929845223
0.012377481051714177 -0.013917911852296821 -0.008473131112554034 0.011036143106083848 -0.0017092165980505064 0.011350764075526917 0.004289210845420735 0.0002794932619454642
0.01381003096533359 -0.01935204815358497 0.007163787693021872 -0.018396249248327518 -0.007667948730928666 0.008391957328115858 -0.002384386045258445 0.008984582287195276
0.0055817768399820545 0.00934003264559103 0.010888073961254673 -0.02053004689780343 0.008123460460092201 -0.02072611589143872 -0.004826541229798544 0.012142400080917133
0.0005516290715834812 0.013852630837583311 0.00247942215278678 0.007687576250073219 0.003019297701660602 -0.018913193742225463 0.006400180972235225 -0.022396262551612364
-0.007812703129975694 0.02784464731675291 -0.003451880664038579 0.013348064221122728 0.0003836260113572468 0.002214961444191969 0.0013980023617320122 -0.019683011181087992
0.0027787117529361883 -0.017018659731257615 -0.008831911888625612 0.02337259785296779 0.001103448297451335 0.010668061923725738 0.0009515637420598308 0.00019514974930764017
0.006489769408435529 -0.027805842973558488 0.0035640854856016264 -0.009706032435236104 -0.010670932443106209 0.015473619699813902 0.006096562529636993 0.01013549863543673
0.004213958738260742 -0.00011442251075857954 -5.433068444022431e-05 -0.025249587033666504 0.003396403789626699 -0.0032220769621022468 -0.012137103570639329 0.012654318846087875
0.013181642545745687 0.015786785364768446 0.005906927523603236 -0.0035493413910404523 -0.009682872463078699 -0.023790275568620362 0.006927860966700504 -0.0052979441386281426
-0.012741692638326854 0.009626937204874139 0.007409252836459607 0.012469577948163004 0.010374779076338518 -0.004199980786422707 -0.007316695840364814 -0.02290766500589323
0.009371923139260857 -0.0020811076847699526 -0.010326482625450467 0.004661044810724178 0.0009166810796085293 0.009953858086544132 0.009630113954000588 0.00015901696363136264
-0.007415886007980937 -0.018134467667046628 0.006591453280799446 0.003962197169213436 -0.012343097085199683 0.003681454046083634 -0.010410599600820943 0.02169880317951311
0.0075439168158388 0.0009416810246230704 0.0006442894427840338 -0.014654468146062144 0.0032462764805897236 -0.00035492086127126643 -0.015321061096855599 0.007790702557180844
-0.009994790234748818 0.018952570809736047 0.009340697183220899 0.004006124543619382 0.0014353708438171727 -0.011418699580588401 0.002344346247916441 -0.007133035468475975
-0.012798435452546282 0.01252564017534905 -0.004714163005674013 0.012827043617297628 0.006113340073693645 0.0053573017457514485 -7.266873101806134e-05 -0.017901252383979428
0.008568885756823678 -0.009902451747527104 -0.014270500806332761 0.00945545291825128 0.00031705640445904733 0.009060669008760265 0.003045682063602757 0.007746978694619653
-0.0022851751727540077 -0.016899872052441863 0.01418997966943242 -0.010357795798691161 -0.012624835679972492 0.007052975424148627 0.0022470481156529657 0.016835975796541138
0.004435167181378898 0.001419826270990196 -0.005837451393923926 -0.014761011973022493 0.012764245817614282 -0.011529607149445325 -0.011433995169251221 0.013946734580965256
-0.0022136339754603965 0.029019893221184926 -0.0011037075570217744 -0.00404441781092309 -0.005589426209810979 -0.008975380261559087 0.012407981439691131 -0.022015022309518885
-0.011333571967784454 0.010902961795073444 -0.002364622114532149 0.02986545344505858 -0.0059633302192692314 -0.004148792731891454 -0.0028117664593978707 -0.001218784117188886
0.012333721014002702 -0.025260408078226222 -0.011849556971065996 0.00896969500193738 -0.009561661129499993 0.028953900754165783 -0.0006475790705983068 -0.00897437414178477
00000000: 63a1 7a53 6d91 3e3f 5ef3 86f1 5fb9 743f
00000010: c2a1 4a81 a07b 74bf ea8e ced6 95c5 7dbf
00000020: 224a 455f b2ff 9abf 153d dd84 58ba 82bf
00000030: 5ec8 6e91 da56 883f 7a35 4f2f 0d36 53bf
00000040: cb75 0089 6fcd a03f e6c7 fffe 7bea 54bf
00000050: 61a0 7ce1 da66 71bf bb02 ecfb f109 813f
00000060: 75e9 c7ba 569b 673f 88e5 31dc 809b 73bf
00000070: 7cd1 b477 ffd4 8bbf 2f67 1c14 88dc 90bf
00000080: de4b e960 2153 8a3f 13fc 1be3 46e6 82bf
00000090: 94c1 076b f474 9f3f 337f ad5f de71 7abf
000000a0: 179a bfb8 a3e0 7dbf 842c 45db dde1 873f
000000b0: a31c f5a1 b2db 823f 6608 7a3c 2d2b 66bf
000000c0: bb1e a747 5a2c 72bf 4aa9 bfa5 e515 90bf
000000d0: 3943 436d 3c75 743f 1a8e 81f1 d750 7abf
000000e0: fcc1 c6e9 990a 9a3f 1a02 1aa2 6f27 8ebf
000000f0: aa2b 5b71 1a31 64bf aa95 29a3 2853 873f
00000100: b017 9913 df9c 7b3f 5cb4 df28 18af 70bf
00000110: 657e 7c51 4c48 3d3f 2ca4 3fcb 8913 7dbf
00000120: 1fc2 d938 611a 6ebf 443f 2b3e 3d52 81bf
00000130: 5f31 196e 6fa4 993f 3be8 5e70 0448 92bf
00000140: 0dcb 6eb4 19fa 673f 6e07 7856 9276 903f
00000150: b06b e849 ef50 393f f04b 46f1 855a 76bf
00000160: 09ab d757 49bb 7a3f d8e4 2349 a2fb 70bf
00000170: ee00 afd8 5e58 7bbf 593e c941 ca0e 86bf
00000180: b2ac d607 9f66 953f 142f eefc 233d 94bf
00000190: 627c 96f0 61a1 713f 8049 0089 d200 803f
000001a0: a57b 206f 45c8 603f de9f 241d 3e5e 483f
000001b0: fdaf 8e2c 111c 4d3f 45ac c6f9 eec8 75bf
000001c0: 22dd 8858 ea26 3cbf c146 4c3d f91b 69bf
000001d0: e569 898d d7df 913f 5108 6ae7 8007 99bf
000001e0: 3157 7839 dc32 1c3f 08e5 372a fe82 793f
000001f0: 32cb a1de 3ec7 683f 1c20 b740 72e6 7e3f
00000200: ea74 ec69 0149 403f c236 52ce 9103 4abf
00000210: 9316 5801 0a2d 64bf 40c3 e506 c33b 83bf
00000220: 4ecd 40fd 574a 903f 3f1a b8d6 f628 95bf
00000230: 4c00 f347 2e7b 75bf 4535 78fd 0918 7a3f
00000240: 2447 b98a e9dc 733f defe 7eed 232f 923f
00000250: fbf4 68f1 beba 33bf a03f ec14 037d 6bbf
00000260: 13f1 fed9 b421 50bf 4b9a 02bd 15db 92bf
00000270: 4ff9 2670 055d 923f e9b9 68fb de0e 93bf
00000280: 6c85 9a17 6f5a 7dbf fc8b 6e74 486a 843f
00000290: 34e2 0f10 04d1 313f caff 0d1c 77ef 8b3f
000002a0: 06ec 7224 73a7 613f 1ab5 cc63 c1cd 82bf
000002b0: 3e1b 9449 4d8b 8f3f 3d75 d0b7 eb1b 98bf
000002c0: ac7e 9762 5d59 893f b0b1 df81 fe80 8cbf
000002d0: da63 2f68 5c5a 81bf 5883 b70d 1e9a 863f
000002e0: e96e fc58 f900 5cbf b878 e9c3 113f 873f
000002f0: 505e e844 9091 713f 83e2 646b 1e51 323f
00000300: afa5 d2fa 6e48 8c3f 4b97 b8f7 05d1 93bf
00000310: a656 b69d c657 7d3f a501 9063 77d6 92bf
00000320: 688a 6d50 6d68 7fbf d781 3072 cd2f 813f
00000330: b0ca bb82 6b88 63bf 1ada bb38 8266 823f
00000340: 7260 b3cf eadc 763f 0414 0df6 dd20 833f
00000350: 79e0 a38c 7c4c 863f 95af 0b20 d405 95bf
00000360: 1933 0d68 08a3 803f 4914 b517 3a39 95bf
00000370: 0fa9 c1cb fec4 73bf f19c f059 1dde 883f
00000380: ca70 3669 6613 423f 9fb0 49a3 c45e 8c3f
00000390: 64f1 e4a1 b94f 643f 06ec 4509 027d 7f3f
000003a0: 902e 561c edbb 683f 26d4 57f2 fa5d 93bf
000003b0: 4c7e 6d7f 1337 7a3f 4fe3 d8bc 0bef 96bf
000003c0: 6c29 7e43 1b00 80bf d25d 60a6 4e83 9c3f
000003d0: 21c7 f951 1e47 6cbf e266 5bda 3a56 8b3f
000003e0: 0662 342c 2d24 393f efdd de5e 1c25 623f
000003f0: 747d 189b a5e7 563f 4c01 3d85 c827 94bf
00000400: dfea 5283 61c3 663f 44b9 deeb 566d 91bf
00000410: ae4b c825 7716 82bf 8cae 9a7d fcee 973f
00000420: c3a1 6c96 3214 523f 4ec4 9708 23d9 853f
00000430: 6e7f 7b93 4b2e 4f3f b0ea 0a95 2394 293f
00000440: b18e e235 0495 7a3f 222a d688 2279 9cbf
00000450: 28d0 39d3 6d32 6d3f a2e7 109f c1e0 83bf
00000460: 6e42 e34e a4da 85bf 54d5 7d14 a2b0 8f3f
00000470: 17ca ec8a b5f8 783f 84c3 5799 ebc1 843f
00000480: b9f9 7aef a742 713f aac8 3bc4 c3fe 1dbf
00000490: 9ce3 4b1a 247c 0cbf d83b 301a 07db 99bf
000004a0: 1625 6a66 c6d2 6b3f 7a75 ad65 2f65 6abf
000004b0: 3384 3b77 56db 88bf 66de c6ec 81ea 893f
000004c0: addf 211d fafe 8a3f 4b11 673b 692a 903f
000004d0: 0f1c 8ac8 dc31 783f eba8 4c26 8213 6dbf
000004e0: a26a 7b24 9dd4 83bf 05c6 1e5e 7a5c 98bf
000004f0: fe0a 8884 6360 7c3f 68ab fb0c 4cb3 75bf
00000500: 1b1b 6b09 5118 8abf 2b07 a5a3 49b7 833f
00000510: 471d ed29 2a59 7e3f 21b7 db6b a689 893f
00000520: af54 b046 5f3f 853f 8cb8 f1c1 ff33 71bf
00000530: 3c1a 9695 1cf8 7dbf 3ab5 1c60 1b75 97bf
00000540: 10ec 113b 9631 833f abdf 412e 660c 61bf
00000550: 50ad 4509 0d26 85bf 989e 6fb0 7517 733f
00000560: 74f4 fea0 ad09 4e3f 7a19 9b37 b062 843f
00000570: 3bda e903 f4b8 833f 5c79 0d51 b9d7 243f
00000580: 0695 00be 1e60 7ebf 60c8 3d86 d791 92bf
00000590: 6be6 62c4 a3ff 7a3f 1176 3134 aa3a 703f
000005a0: 938f 7f72 5647 89bf b857 5997 9128 6e3f
000005b0: 51c8 8906 2752 85bf 3eca 1208 3638 963f
000005c0: a3d5 1fc0 5ee6 7e3f 9d52 1d9a 64db 4e3f
000005d0: 5a47 ff0a b11c 453f 23bf 6b6b 2903 8ebf
000005e0: f84a 2c6a ef97 6a3f a874 e87d 9542 37bf
000005f0: bddf ce02 a660 8fbf 05a2 22cb 24e9 7f3f
00000600: 864e 8209 2678 84bf 0d36 367f 4d68 933f
00000610: 24e3 6327 3721 833f 0c74 60de b968 703f
00000620: f9a5 3cb5 6184 573f c880 17ea af62 87bf
00000630: cfbf e34e 7334 633f efd8 eea0 8737 7dbf
00000640: 6452 abed 1036 8abf 7313 51f7 0aa7 893f
00000650: 4385 ff7e 284f 73bf 59ab b9a6 1045 8a3f
00000660: d233 f93a 4d0a 793f 8855 afbc 89f1 753f
00000670: 629b eb4a b70c 13bf bdc0 2fb6 b454 92bf
00000680: bcb1 b560 908c 813f b12c 3f93 bc47 84bf
00000690: 4bff 1532 da39 8dbf de0b 6c68 615d 833f
000006a0: 1e13 5de3 52c7 343f 117e 9468 668e 823f
000006b0: c214 6e1b 42f3 683f 3ee0 2dc2 4bbb 7f3f
000006c0: 8456 3e14 5cb8 62bf 8f58 1637 334e 91bf
000006d0: 6191 e3d4 a20f 8d3f 9a52 b6d1 7736 85bf
000006e0: ee20 e7c2 0cdb 89bf 0651 94ac 94e3 7c3f
000006f0: 8ba4 6ac5 6668 623f 5702 c535 733d 913f
00000700: dce7 f01f 9c2a 723f 2609 98d9 2e43 573f
00000710: 2d25 43ed 02e9 77bf c4a1 707d 053b 8ebf
00000720: 8c10 c212 2424 8a3f 1609 24ad d59c 87bf
00000730: ed35 84da b46a 87bf 2b37 4a07 1b90 8c3f
00000740: 3914 f5b0 5322 62bf 010b 4611 64b7 9d3f
00000750: 0e05 27f7 4815 52bf d31b ab23 e190 70bf
00000760: 9c87 642c f0e4 76bf 015d 8a25 af61 82bf
00000770: 815a f113 5b69 893f 9a41 5c23 1b8b 96bf
00000780: 6285 9647 0e36 87bf c20b b7c2 4a54 863f
00000790: 0b2e c7d4 f85e 63bf 2e94 4ea7 0c95 9e3f
000007a0: 21ac 4544 016d 78bf c627 9f11 53fe 70bf
000007b0: 385a 969f b308 67bf c943 267b f3f7 53bf
000007c0: 1d21 2503 6c42 893f 9281 514a dddd 99bf
000007d0: 2473 4d9d 9444 88bf 18e0 8115 b45e 823f
000007e0: 90e9 c56e 1095 83bf d6b5 5263 17a6 9d3f
000007f0: bc7b 0377 4938 45bf a73c 871b 2861 82bf
