2020/A2_solution/svm_best_model.pt (torch, 246579 bytes, 1 tensors)

W f8 [3073, 10]
000000 7b c7 65 5c 0c 31 6a 3f 18 d1 72 da 6c 81 6d 3f
       0.003197216169774584 0.003601753811006369
000010 d2 44 c9 5d 0e 1c 6c 3f 70 b5 0e 4d e4 cb 6c 3f
       0.003431346949846239 0.003515191936876043
000020 cb 20 2d e5 14 28 6e 3f cd 48 c5 ca 0b 3b 6d 3f
       0.003681221781708021 0.0035681944192812232
000030 fa 64 27 20 30 b5 98 bf 2b 6c 09 a4 0c 95 a3 3f
       -0.024128677332417837 0.03824653150942255
000040 d9 15 cf 62 e5 b5 6c 3f 84 94 62 b3 d2 c5 a3 bf
       0.003504703540303505 -0.03861864509352933
000050 07 03 ab 48 f2 1f 6c 3f ae 61 fd 1e 73 db 6e 3f
       0.0034332019907598074 0.0037667511423189115
000060 6b 54 3c ce 56 3b 6d 3f c0 68 a9 56 35 b6 6d 3f
       0.0035683341428787616 0.0036269227760331313
000070 74 1d be 66 f0 ea 6e 3f 18 80 2b 06 03 5d 6f 3f
       0.003774137052406418 0.0038285311760404388
000080 f6 d3 78 a9 f5 3e 99 bf a7 4d be df 29 06 a3 3f
       -0.024654234379529037 0.0371563993095621
000090 f5 9a e3 82 b2 53 6e 3f 57 80 e4 b1 62 8f a3 bf
       0.003702019362310844 -0.03820331975498508
0000a0 b8 99 84 80 a0 84 67 3f d0 e4 51 bb 96 80 6a 3f
       0.002870858650697996 0.0032351440409540203
0000b0 bd e4 4f e7 96 3d 69 3f 9e f1 45 e3 43 0f 69 3f
       0.0030811259589396942 0.0030590368207283466
0000c0 88 ac 37 f8 48 31 6a 3f f7 55 74 08 55 fa 6a 3f
       0.003197329062222535 0.003293195800902589
0000d0 fd 7e 35 ef 8a fd 98 bf db 10 69 0d 47 48 a3 3f
       -0.024404688692242427 0.03766080893231712
0000e0 ce 21 7e 9a 55 d5 69 3f 0c 54 54 5f 94 fe a1 bf
       0.0031534835761173113 -0.03514541305245453
0000f0 8c a9 a4 61 ae d1 64 3f de 96 fb 79 e4 77 67 3f
       0.0025413900267682917 0.0028647863799616665
000100 b4 33 36 20 3f 9d 66 3f c9 c1 8b 10 87 ef 65 3f
       0.0027605278898534483 0.002677692220793147
000110 3e 26 fe fa dc 5c 66 3f 34 b0 90 08 40 02 67 3f
       0.002729827501700282 0.0028086901334259066
000120 f2 0b 0d 35 f8 a2 97 bf 9e 29 4d 9f 3e 39 a3 3f
       -0.02308261703297982 0.03754611677739493
000130 ac 68 55 3f 54 fc 66 3f fb 61 05 28 53 3b a1 bf
       0.002805866761872519 -0.03365573752916259
000140 57 ab 2d 42 61 45 62 3f 55 e3 30 ac ee ba 65 3f
       0.002230348547006693 0.002652612836325489
000150 d2 a4 f9 66 95 c4 64 3f 73 b8 f7 0a 02 9e 63 3f
       0.002535144616378029 0.0023946800135866086
000160 12 c4 cb 83 c4 77 63 3f 25 2a 3d 8f 3e b4 64 3f
       0.002376445596717244 0.002527353464676157
000170 ff c6 88 d5 02 ba 96 bf 56 5e 69 58 59 a5 a3 3f
       -0.022193950923059976 0.03837088779681312
000180 d1 49 fd 15 00 29 64 3f 0f 96 2b 9d a4 13 a1 bf
       0.0024609567334803258 -0.03335298937399155
000190 2c 95 6a a9 bf 68 5c 3f 45 e7 e5 91 96 70 61 3f
       0.0017339584061713638 0.0021288815325392362
0001a0 69 46 ac c4 68 5f 60 3f aa 65 20 4b 37 ca 5d 3f
       0.0019986196761088604 0.0018182315802789208
0001b0 e6 16 f1 c5 f0 61 60 3f 15 35 f6 f4 d7 ad 60 3f
       0.0019998266793973428 0.002036020079407517
0001c0 9a fe 35 57 e6 f3 95 bf 4e cf 58 89 60 ab a4 3f
       -0.021438216278964896 0.04037000347707807
0001d0 e1 eb 88 91 14 03 60 3f b7 08 3b 88 66 b1 a0 bf
       0.0019545938232829884 -0.03260345852824414
0001e0 26 cb 9e c2 69 37 59 3f 1d 17 4c c5 7f e7 5c 3f
       0.0015390904249954012 0.00176417806250257
0001f0 b0 c2 e0 22 dd c4 59 3f 22 8f 76 3c 29 82 58 3f
       0.0015728148969282145 0.0014958765694723171
000200 de 80 ba 37 cc b5 5a 3f ee 1b ff 7f bd 5e 5c 3f
       0.0016302580178618113 0.001731572207050776
000210 21 18 f9 c1 9a 20 96 bf 82 95 4e 98 a7 6d a5 3f
       -0.021608751382039885 0.041852223722609785
000220 61 10 0f 49 f8 e7 5d 3f 52 51 97 33 b0 48 a0 bf
       0.0018253254568074905 -0.03180456762098295
000230 94 f1 a2 e1 ad e6 56 3f ed 44 53 d3 1b cb 57 3f
       0.0013977716503595682 0.0014522334798139872
000240 d3 83 1f e3 25 c5 53 3f 9b ab 9f 73 5d d0 55 3f
       0.001206671714037312 0.001331416379339179
000250 d0 0c e7 84 3d ae 54 3f 61 f4 f6 82 76 f8 57 3f
       0.0012622452519373446 0.001463046773877673
000260 82 22 d2 f0 b6 5d 96 bf a2 9c be 54 74 21 a6 3f
       -0.021841867874658145 0.04322398695449549
000270 c9 6c 10 5f 80 fa 59 3f 3d 38 85 8e ba d3 9f bf
       0.0015856031061563405 -0.03108111853480743
000280 96 2c 8e 15 8b c7 50 3f 41 6c 4a da 5f 49 54 3f
       0.0010241373294970538 0.001238196951055995
000290 c4 36 e9 4c cc 74 51 3f ba d1 4e 67 13 28 53 3f
       0.0010654444810315614 0.0011692227828748862
0002a0 16 94 90 5e 0e 45 50 3f 83 6f 0e df 04 ba 54 3f
       0.0009930267644986438 0.0012650535174776052
0002b0 32 44 66 64 3a 81 97 bf c2 f6 7e 78 d0 0c a7 3f
       -0.022953903558633644 0.045019640645006756
0002c0 7e f3 3a 3c aa 44 54 3f b6 16 34 2d ee c5 9e bf
       0.0012370741323330654 -0.030051919468880604
0002d0 f2 be c9 10 f2 75 4b 3f 9d 20 ed 9a ae 2a 51 3f
       0.000838034816821291 0.001047773850318768
0002e0 81 dd a3 b0 59 15 4b 3f df aa 94 04 bc fa 4d 3f
       0.0008265197696166044 0.0009148996406670127
0002f0 4f 3e 88 b9 ed f4 49 3f 56 01 60 a4 61 48 50 3f
       0.0007921372189815897 0.0009938195739778908
000300 62 ac d1 5f d6 d1 97 bf 12 12 8d 7f 61 33 a7 3f
       -0.0232614036544131 0.045313879795262704
000310 f4 a8 cd 4f 38 8a 4c 3f da 9f 1e 2c 9c 04 9d bf
       0.0008709692916515619 -0.028337898438309007
000320 e3 b2 30 98 fb 04 49 3f 4e 93 e6 8b e9 52 4e 3f
       0.0007635334480987323 0.0009254112590509707
000330 8f 8c 25 22 d7 17 43 3f b4 c0 0d bb 29 e9 4a 3f
       0.000582675977323881 0.0008212522280768493
000340 20 61 8e fd c1 5a 48 3f 50 a7 67 28 fa a9 4a 3f
       0.0007432410449040062 0.000813719890001988
000350 54 49 16 4c 97 f1 96 bf 56 4c cb 78 25 b6 a7 3f
       -0.022405971545205475 0.046311541552903776
000360 33 3e b5 f4 82 4e 46 3f 34 98 e4 bd b3 ef 9d bf
       0.0006807460244235341 -0.029234703507562368
000370 45 dc 39 f9 fc 3e 4b 3f 09 fa 5b 69 fc 78 51 3f
       0.0008314833853110345 0.0010664429623258329
000380 52 08 f8 8b c1 a3 48 3f e7 ba eb c9 70 52 52 3f
       0.0007519431164271318 0.0011182881786983513
000390 84 b6 0f f8 c8 b5 4d 3f 1d 73 8c bd d6 f8 4e 3f
       0.0009066802305121723 0.0009451912438610297
0003a0 f4 90 24 62 89 7f 97 bf fa 3d ad d3 16 95 a7 3f
       -0.022947451224482898 0.04605933507866307
0003b0 55 ed 69 ec 0e ae 4b 3f fe 18 13 d6 1e 4a 9e bf
       0.0008447239750490146 -0.0295796220932738
0003c0 cc a0 ac ff 91 1e 4e 3f 2e 72 63 bf a8 48 50 3f
       0.0009191716083920775 0.000993885796155013
0003d0 d0 04 55 dc af 31 47 3f de c7 ad a2 cb dc 4f 3f
       0.0007078274435700308 0.0009723657907285651
0003e0 76 f8 37 bc f1 4f 4b 3f b0 a7 35 e7 ae ca 4c 3f
       0.0008335047099874554 0.0008786539096210435
0003f0 19 ae 1d 3e fa 69 97 bf 92 2f 2e a6 48 78 a7 3f
       -0.02286520961881253 0.04583956745690822
000400 f0 60 24 31 d9 0f 48 3f cf 15 da ae 62 b5 9d bf
       0.0007343111522315742 -0.029012243196594952
000410 d4 53 7f e3 b7 53 54 3f de a1 77 b4 4f 4e 54 3f
       0.0012406631267272055 0.001239374005189579
000420 fd 86 09 91 56 85 4e 3f 76 82 ba 11 72 03 53 3f
       0.0009314224899521214 0.0011604894597569116
000430 23 3c 9a 95 f3 99 51 3f d4 27 aa 28 bd cb 52 3f
       0.0010743025544888228 0.001147207951961428
000440 81 77 0c 82 2b 4b 97 bf d9 39 f9 3c a0 f6 a6 3f
       -0.022747688114683754 0.04485035652452369
000450 76 6a 0a 97 73 82 49 3f 40 b8 13 aa c7 62 9e bf
       0.000778490486556051 -0.029673690562894928
000460 4c bb f3 b7 5a ae 51 3f ae ff 9a 20 5f f9 54 3f
       0.0010791669772591437 0.001280157945458864
000470 17 3b 42 fa 23 ae 4e 3f 72 83 3e 8f 4f 5f 53 3f
       0.0009362865134948409 0.0011823918293673821
000480 a4 59 56 b7 53 50 52 3f 51 41 28 8a 3e a7 53 3f
       0.0011177842655790493 0.0011995421160727225
000490 45 82 47 1e d8 6d 97 bf 57 83 b9 1c 91 05 a7 3f
       -0.022879959915260057 0.04496434665339304
0004a0 5b 8e ec ed bb be 4e 3f 10 f8 bf 1b 52 87 9e bf
       0.0009382646202066956 -0.02981308264133281
0004b0 29 3d b6 c2 5c 90 50 3f 45 0f 64 0b 8d d2 54 3f
       0.0010109811654251488 0.0012709023845340489
0004c0 6c 52 8a 60 49 bd 4f 3f 8d 5f db 26 9a b0 50 3f
       0.0009686096464798905 0.0010186677349590418
0004d0 04 d8 24 4d 6b d8 51 3f 39 91 3d 87 14 e4 53 3f
       0.0010891960014993715 0.0012140465232387111
0004e0 4b 4f 75 8f 6a f8 96 bf 4f 05 65 56 da c3 a6 3f
       -0.022432007795330205 0.04446298889753086
0004f0 ac 02 d1 98 70 19 4d 3f 96 41 81 4b 00 33 9e bf
       0.0008880424298994458 -0.0294914289555109
000500 49 e8 08 dc 93 00 52 3f f6 01 16 47 2a 74 54 3f
       0.0010987705174003873 0.001248399054333158
000510 55 42 c3 2a df eb 4f 3f 2c 27 73 a5 1a 11 4e 3f
       0.0009741630251714576 0.0009175663098172963
000520 fa 02 f9 b2 c2 2f 52 3f a3 dc b9 9f b1 d8 53 3f
       0.0011100198133961446 0.0012113318070115307
000530 da 70 76 86 b7 8b 96 bf 14 ab b9 50 2e a2 a6 3f
       -0.022017352659177238 0.044206092218550236
000540 9c 3a 09 ea 8d 5f 4f 3f 99 88 49 57 e7 69 9e bf
       0.0009574358883329306 -0.029700865461912505
000550 23 98 bf 0e 93 ce 52 3f e5 da 69 5b bb 92 52 3f
       0.0011478839978678122 0.0011336164149306435
000560 99 6e 2b 65 f3 2e 4e 3f 1d 28 de 38 d6 83 50 3f
       0.0009211243107886846 0.001007994843777122
000570 00 05 95 f7 8c 6d 51 3f 7c e6 27 e3 a3 26 53 3f
       0.0010637165672309767 0.0011688805067237287
000580 8a 20 c4 b2 23 c0 96 bf 32 fc 7e ee 79 78 a6 3f
       -0.022217328821199568 0.04388791118935166
000590 88 aa 18 5e 7d 85 4a 3f 6e 2d 5b 15 b6 9e 9d bf
       0.0008093702455814348 -0.028925747922398264
0005a0 30 75 77 a2 f3 3c 50 3f a7 1d 6a 56 8a c0 51 3f
       0.000991094517181889 0.001083502860326971
0005b0 e8 c1 c4 45 b5 08 4c 3f d3 71 c1 47 a4 42 52 3f
       0.0008555302734177235 0.0011145214366684488
0005c0 74 e0 7e e8 56 b5 52 3f 41 ad f3 77 2f dc 52 3f
       0.0011418675148729103 0.001151129108445684
0005d0 b2 ca 45 fd 7b 83 96 bf 7f ea 88 54 d3 49 a6 3f
       -0.021985947927030743 0.043531993931954276
0005e0 86 6a d6 4d fb 55 4d 3f c4 cd 54 7c 0d 7a 9d bf
       0.0008952595778056328 -0.02878590651853387
0005f0 b4 50 f6 14 1b 3e 4d 3f 84 42 ca c6 40 94 52 3f
       0.0008924133525618689 0.0011339790900458955
000600 e6 31 b6 1d e6 6f 4d 3f 1d 2b 35 36 d8 3e 55 3f
       0.0008983491529064829 0.001296721596036838
000610 7f 85 93 78 48 03 55 3f 31 90 70 bb f4 65 54 3f
       0.00128252103086654 0.0012450113260991209
000620 13 e2 0b 52 18 7d 95 bf 4a 8a a6 bd 26 21 a6 3f
       -0.020985012061801877 0.04322167458601152
000630 b5 87 eb 43 97 4a 4e 3f e3 85 1c 6e 23 a0 9e bf
       0.0009244192695769734 -0.029907754512469863
000640 b2 89 89 ec d6 b0 52 3f 54 72 a8 69 12 b1 54 3f
       0.001140794645970372 0.0012629203616888645
000650 fe ef cb c0 54 0e 52 3f a7 be 00 52 01 2c 58 3f
       0.0011020496050937463 0.0014753353971278889
000660 60 40 83 89 30 94 57 3f 46 83 28 e4 87 9d 56 3f
       0.0014391397472089049 0.0013803317130014077
000670 55 f7 a9 2d 65 87 95 bf 5a 68 bb 17 e2 52 a6 3f
       -0.02102430430613052 0.04360109843919764
000680 8e 32 3b d1 14 40 51 3f 56 28 21 71 2e 17 a0 bf
       0.0010528758329428098 -0.031426860151058264
000690 67 8b 10 c8 1d 07 56 3f 0d e0 f3 a8 25 bb 56 3f
       0.0013444701037392483 0.0013873927853733676
0006a0 7a 5b 38 81 a0 91 55 3f 15 81 87 e4 a6 55 59 3f
       0.001316458456931817 0.0015462999164058179
0006b0 fe 59 66 00 34 81 59 3f e2 dd f1 30 78 0f 58 3f
       0.0015566833331824843 0.001468531965455593
0006c0 e5 ce 90 ce 28 50 96 bf b3 7a 89 26 ea 7d a6 3f
       -0.02179015885140147 0.043929402546145545
0006d0 fe e9 76 e7 9e 33 52 3f 48 c6 8a c4 ed 50 a0 bf
       0.0011109401510639434 -0.031867437593416315
0006e0 37 cb 33 85 02 02 59 3f a2 f4 03 d1 f6 21 5b 3f
       0.001526358090640568 0.00165604689760749
0006f0 35 48 93 fc 11 0d 5a 3f 7b 4a d5 7e de 57 5d 3f
       0.001590030255375752 0.0017909691626597768
000700 62 68 01 63 ab 21 5d 3f 19 08 06 dd 99 41 5c 3f
       0.001778046960700518 0.0017246248790745487
000710 3d 1e 8f 1e 97 10 96 bf c5 42 76 99 c6 ae a5 3f
       -0.02154766201036139 0.0423490583735933
000720 6c d4 05 65 0f e7 57 3f 32 36 49 51 c3 8c a0 bf
       0.0014588976228797857 -0.032323936150174495
000730 ae 3c e5 1b ad fc 58 3f 1d 98 e4 6c d3 d3 5f 3f
       0.0015250864522220841 0.0019425930691539036
000740 51 68 bc ea 98 32 5e 3f f2 21 a8 fe f3 46 5f 3f
       0.001843118031450892 0.0019090063821086659
000750 6e 90 8c 7b 24 4b 60 3f 15 7f 80 5d 75 11 60 3f
       0.0019889557410284675 0.001961449841488059
000760 6b ef b8 36 ef 45 96 bf 12 07 d9 88 14 37 a5 3f
       -0.021751153674116546 0.04143585367684301
000770 f1 f5 41 65 a1 36 5d 3f d6 78 8d 1d 0e b6 a0 bf
       0.001783044445829215 -0.032638970477579285
000780 ac 6c ad bb 3e 1f 5b 3f 1b 97 fa 21 48 de 61 3f
       0.0016553986194683219 0.002181187519300643
000790 b6 05 c8 c2 7e 77 60 3f 07 a7 e0 cb 45 51 61 3f
       0.002010104732335728 0.0021139491282341524
0007a0 9b 51 1f 64 e9 61 61 3f 5a ef aa 70 41 7a 61 3f
       0.0021218832416513684 0.002133491337500998
0007b0 d7 b9 00 99 b1 4a 96 bf ad 24 39 a2 50 7a a5 3f
       -0.02176930900912474 0.0419488142038714
0007c0 b7 7d d0 73 25 2e 60 3f 8e 03 ba 78 e9 98 a1 bf
       0.0019751292698086636 -0.034369750964294274
0007d0 37 c8 56 46 5a be 5c 3f 0d e3 15 03 c9 93 61 3f
       0.0017543679799527764 0.0021456647888807912
0007e0 50 07 9d 1a 39 e2 60 3f b0 2c 75 b9 be 7b 61 3f
       0.0020609965621653306 0.002134201534919798
0007f0 eb bd 06 95 d4 97 60 3f e4 fa 79 db f9 ff 60 3f
       0.0020255233759696087 0.002075183870885554
